…
33/33 [==============================] - 1s 26ms/step - loss: 1.0901 - categorical_accuracy: 0.3429 - val_loss: 1.1009 - val_categorical_accuracy: 0.2011
29/29 [==============================] - 0s 6ms/step - loss: 1.1009 - categorical_accuracy: 0.2011
eval [1.1009069681167603, 0.2011111080646515]
29/29 [==============================] - 0s 5ms/step - loss: 1.1009 - categorical_accuracy: 0.2011
10 8
Model: "sequential_16"
_________________________________________________________________
 Layer (type)                Output Shape              Param #   
=================================================================
 conv2d_64 (Conv2D)          (None, 105, 105, 10)      1930      
                                                                 
 max_pooling2d_64 (MaxPooli  (None, 52, 52, 10)        0         
 ng2D)                                                           
                                                                 
 batch_normalization_64 (Ba  (None, 52, 52, 10)        40        
 tchNormalization)                                               
                                                                 
 conv2d_65 (Conv2D)          (None, 50, 50, 10)        910       
                                                                 
 max_pooling2d_65 (MaxPooli  (None, 25, 25, 10)        0         
 ng2D)                                                           
                                                                 
 batch_normalization_65 (Ba  (None, 25, 25, 10)        40        
 tchNormalization)                                               
                                                                 
 conv2d_66 (Conv2D)          (None, 23, 23, 32)        2912      
                                                                 
 dropout_48 (Dropout)        (None, 23, 23, 32)        0         
                                                                 
 max_pooling2d_66 (MaxPooli  (None, 11, 11, 32)        0         
 ng2D)                                                           
                                                                 
 batch_normalization_66 (Ba  (None, 11, 11, 32)        128       
 tchNormalization)                                               
                                                                 
 conv2d_67 (Conv2D)          (None, 9, 9, 5)           1445      
                                                                 
 dropout_49 (Dropout)        (None, 9, 9, 5)           0         
                                                                 
 max_pooling2d_67 (MaxPooli  (None, 4, 4, 5)           0         
 ng2D)                                                           
                                                                 
 batch_normalization_67 (Ba  (None, 4, 4, 5)           20        
 tchNormalization)                                               
                                                                 
 flatten_16 (Flatten)        (None, 80)                0         
                                                                 
 dense_32 (Dense)            (None, 64)                5184      
                                                                 
 dropout_50 (Dropout)        (None, 64)                0         
                                                                 
 dense_33 (Dense)            (None, 3)                 195       
                                                                 
=================================================================
Total params: 12804 (50.02 KB)
Trainable params: 12690 (49.57 KB)
Non-trainable params: 114 (456.00 Byte)
_________________________________________________________________
None
Epoch 1/20
33/33 [==============================] - 4s 40ms/step - loss: 1.3695 - categorical_accuracy: 0.3686 - val_loss: 1.2738 - val_categorical_accuracy: 0.0000e+00
…
33/33 [==============================] - 1s 18ms/step - loss: 1.0725 - categorical_accuracy: 0.3319 - val_loss: 1.1723 - val_categorical_accuracy: 0.0033
29/29 [==============================] - 0s 4ms/step - loss: 1.1723 - categorical_accuracy: 0.0033
eval [1.1723233461380005, 0.0033333334140479565]
29/29 [==============================] - 0s 4ms/step - loss: 1.1723 - categorical_accuracy: 0.0033
10 9
Model: "sequential_17"
_________________________________________________________________
 Layer (type)                Output Shape              Param #   
=================================================================
 conv2d_68 (Conv2D)          (None, 104, 104, 10)      2440      
                                                                 
 max_pooling2d_68 (MaxPooli  (None, 52, 52, 10)        0         
 ng2D)                                                           
                                                                 
 batch_normalization_68 (Ba  (None, 52, 52, 10)        40        
 tchNormalization)                                               
                                                                 
 conv2d_69 (Conv2D)          (None, 50, 50, 10)        910       
                                                                 
 max_pooling2d_69 (MaxPooli  (None, 25, 25, 10)        0         
 ng2D)                                                           
                                                                 
 batch_normalization_69 (Ba  (None, 25, 25, 10)        40        
 tchNormalization)                                               
                                                                 
 conv2d_70 (Conv2D)          (None, 23, 23, 32)        2912      
                                                                 
 dropout_51 (Dropout)        (None, 23, 23, 32)        0         
                                                                 
 max_pooling2d_70 (MaxPooli  (None, 11, 11, 32)        0         
 ng2D)                                                           
                                                                 
 batch_normalization_70 (Ba  (None, 11, 11, 32)        128       
 tchNormalization)                                               
                                                                 
 conv2d_71 (Conv2D)          (None, 9, 9, 5)           1445      
                                                                 
 dropout_52 (Dropout)        (None, 9, 9, 5)           0         
                                                                 
 max_pooling2d_71 (MaxPooli  (None, 4, 4, 5)           0         
 ng2D)                                                           
                                                                 
 batch_normalization_71 (Ba  (None, 4, 4, 5)           20        
 tchNormalization)                                               
                                                                 
 flatten_17 (Flatten)        (None, 80)                0         
                                                                 
 dense_34 (Dense)            (None, 64)                5184      
                                                                 
 dropout_53 (Dropout)        (None, 64)                0         
                                                                 
 dense_35 (Dense)            (None, 3)                 195       
                                                                 
=================================================================
Total params: 13314 (52.01 KB)
Trainable params: 13200 (51.56 KB)
Non-trainable params: 114 (456.00 Byte)
_________________________________________________________________
None
Epoch 1/20
33/33 [==============================] - 6s 42ms/step - loss: 1.3678 - categorical_accuracy: 0.3062 - val_loss: 1.2972 - val_categorical_accuracy: 0.0044
…
33/33 [==============================] - 1s 18ms/step - loss: 1.0664 - categorical_accuracy: 0.3343 - val_loss: 1.0941 - val_categorical_accuracy: 0.9833
29/29 [==============================] - 0s 5ms/step - loss: 1.0941 - categorical_accuracy: 0.9833
eval [1.0940511226654053, 0.9833333492279053]
29/29 [==============================] - 0s 5ms/step - loss: 1.0941 - categorical_accuracy: 0.9833
20 2
Model: "sequential_18"
_________________________________________________________________
 Layer (type)                Output Shape              Param #   
=================================================================
 conv2d_72 (Conv2D)          (None, 111, 111, 20)      260       
                                                                 
 max_pooling2d_72 (MaxPooli  (None, 55, 55, 20)        0         
 ng2D)                                                           
                                                                 
 batch_normalization_72 (Ba  (None, 55, 55, 20)        80        
 tchNormalization)                                               
                                                                 
 conv2d_73 (Conv2D)          (None, 53, 53, 20)        3620      
                                                                 
 max_pooling2d_73 (MaxPooli  (None, 26, 26, 20)        0         
 ng2D)                                                           
                                                                 
 batch_normalization_73 (Ba  (None, 26, 26, 20)        80        
 tchNormalization)                                               
                                                                 
 conv2d_74 (Conv2D)          (None, 24, 24, 32)        5792      
                                                                 
 dropout_54 (Dropout)        (None, 24, 24, 32)        0         
                                                                 
 max_pooling2d_74 (MaxPooli  (None, 12, 12, 32)        0         
 ng2D)                                                           
                                                                 
 batch_normalization_74 (Ba  (None, 12, 12, 32)        128       
 tchNormalization)                                               
                                                                 
 conv2d_75 (Conv2D)          (None, 10, 10, 10)        2890      
                                                                 
 dropout_55 (Dropout)        (None, 10, 10, 10)        0         
                                                                 
 max_pooling2d_75 (MaxPooli  (None, 5, 5, 10)          0         
 ng2D)                                                           
                                                                 
 batch_normalization_75 (Ba  (None, 5, 5, 10)          40        
 tchNormalization)                                               
                                                                 
 flatten_18 (Flatten)        (None, 250)               0         
                                                                 
 dense_36 (Dense)            (None, 64)                16064     
                                                                 
 dropout_56 (Dropout)        (None, 64)                0         
                                                                 
 dense_37 (Dense)            (None, 3)                 195       
                                                                 
=================================================================
Total params: 29149 (113.86 KB)
Trainable params: 28985 (113.22 KB)
Non-trainable params: 164 (656.00 Byte)
_________________________________________________________________
None
Epoch 1/20
33/33 [==============================] - 5s 56ms/step - loss: 1.3971 - categorical_accuracy: 0.3067 - val_loss: 1.1837 - val_categorical_accuracy: 0.8567
…
33/33 [==============================] - 1s 23ms/step - loss: 1.0449 - categorical_accuracy: 0.3600 - val_loss: 1.1435 - val_categorical_accuracy: 0.0200
29/29 [==============================] - 0s 4ms/step - loss: 1.1435 - categorical_accuracy: 0.0200
eval [1.143505334854126, 0.019999999552965164]
29/29 [==============================] - 0s 4ms/step - loss: 1.1435 - categorical_accuracy: 0.0200
20 3
Model: "sequential_19"
_________________________________________________________________
 Layer (type)                Output Shape              Param #   
=================================================================
 conv2d_76 (Conv2D)          (None, 110, 110, 20)      560       
                                                                 
 max_pooling2d_76 (MaxPooli  (None, 55, 55, 20)        0         
 ng2D)                                                           
                                                                 
 batch_normalization_76 (Ba  (None, 55, 55, 20)        80        
 tchNormalization)                                               
                                                                 
 conv2d_77 (Conv2D)          (None, 53, 53, 20)        3620      
                                                                 
 max_pooling2d_77 (MaxPooli  (None, 26, 26, 20)        0         
 ng2D)                                                           
                                                                 
 batch_normalization_77 (Ba  (None, 26, 26, 20)        80        
 tchNormalization)                                               
                                                                 
 conv2d_78 (Conv2D)          (None, 24, 24, 32)        5792      
                                                                 
 dropout_57 (Dropout)        (None, 24, 24, 32)        0         
                                                                 
 max_pooling2d_78 (MaxPooli  (None, 12, 12, 32)        0         
 ng2D)                                                           
                                                                 
 batch_normalization_78 (Ba  (None, 12, 12, 32)        128       
 tchNormalization)                                               
                                                                 
 conv2d_79 (Conv2D)          (None, 10, 10, 10)        2890      
                                                                 
 dropout_58 (Dropout)        (None, 10, 10, 10)        0         
                                                                 
 max_pooling2d_79 (MaxPooli  (None, 5, 5, 10)          0         
 ng2D)                                                           
                                                                 
 batch_normalization_79 (Ba  (None, 5, 5, 10)          40        
 tchNormalization)                                               
                                                                 
 flatten_19 (Flatten)        (None, 250)               0         
                                                                 
 dense_38 (Dense)            (None, 64)                16064     
                                                                 
 dropout_59 (Dropout)        (None, 64)                0         
                                                                 
 dense_39 (Dense)            (None, 3)                 195       
                                                                 
=================================================================
Total params: 29449 (115.04 KB)
Trainable params: 29285 (114.39 KB)
Non-trainable params: 164 (656.00 Byte)
_________________________________________________________________
None
Epoch 1/20
33/33 [==============================] - 5s 36ms/step - loss: 1.3674 - categorical_accuracy: 0.3652 - val_loss: 1.3700 - val_categorical_accuracy: 0.0044
…
33/33 [==============================] - 1s 25ms/step - loss: 1.0648 - categorical_accuracy: 0.2962 - val_loss: 1.1084 - val_categorical_accuracy: 0.0578
29/29 [==============================] - 0s 6ms/step - loss: 1.1084 - categorical_accuracy: 0.0578
eval [1.1083966493606567, 0.057777777314186096]
29/29 [==============================] - 0s 6ms/step - loss: 1.1084 - categorical_accuracy: 0.0578
20 4
Model: "sequential_20"
_________________________________________________________________
 Layer (type)                Output Shape              Param #   
=================================================================
 conv2d_80 (Conv2D)          (None, 109, 109, 20)      980       
                                                                 
 max_pooling2d_80 (MaxPooli  (None, 54, 54, 20)        0         
 ng2D)                                                           
                                                                 
 batch_normalization_80 (Ba  (None, 54, 54, 20)        80        
 tchNormalization)                                               
                                                                 
 conv2d_81 (Conv2D)          (None, 52, 52, 20)        3620      
                                                                 
 max_pooling2d_81 (MaxPooli  (None, 26, 26, 20)        0         
 ng2D)                                                           
                                                                 
 batch_normalization_81 (Ba  (None, 26, 26, 20)        80        
 tchNormalization)                                               
                                                                 
 conv2d_82 (Conv2D)          (None, 24, 24, 32)        5792      
                                                                 
 dropout_60 (Dropout)        (None, 24, 24, 32)        0         
                                                                 
 max_pooling2d_82 (MaxPooli  (None, 12, 12, 32)        0         
 ng2D)                                                           
                                                                 
 batch_normalization_82 (Ba  (None, 12, 12, 32)        128       
 tchNormalization)                                               
                                                                 
 conv2d_83 (Conv2D)          (None, 10, 10, 10)        2890      
                                                                 
 dropout_61 (Dropout)        (None, 10, 10, 10)        0         
                                                                 
 max_pooling2d_83 (MaxPooli  (None, 5, 5, 10)          0         
 ng2D)                                                           
                                                                 
 batch_normalization_83 (Ba  (None, 5, 5, 10)          40        
 tchNormalization)                                               
                                                                 
 flatten_20 (Flatten)        (None, 250)               0         
                                                                 
 dense_40 (Dense)            (None, 64)                16064     
                                                                 
 dropout_62 (Dropout)        (None, 64)                0         
                                                                 
 dense_41 (Dense)            (None, 3)                 195       
                                                                 
=================================================================
Total params: 29869 (116.68 KB)
Trainable params: 29705 (116.04 KB)
Non-trainable params: 164 (656.00 Byte)
_________________________________________________________________
None
Epoch 1/20
33/33 [==============================] - 6s 42ms/step - loss: 1.4565 - categorical_accuracy: 0.3333 - val_loss: 2.8919 - val_categorical_accuracy: 0.0000e+00
…
33/33 [==============================] - 1s 20ms/step - loss: 1.0753 - categorical_accuracy: 0.3476 - val_loss: 1.1053 - val_categorical_accuracy: 0.0167
29/29 [==============================] - 0s 4ms/step - loss: 1.1053 - categorical_accuracy: 0.0167
eval [1.1053119897842407, 0.01666666753590107]
29/29 [==============================] - 0s 4ms/step - loss: 1.1053 - categorical_accuracy: 0.0167
20 5
Model: "sequential_21"
_________________________________________________________________
 Layer (type)                Output Shape              Param #   
=================================================================
 conv2d_84 (Conv2D)          (None, 108, 108, 20)      1520      
                                                                 
 max_pooling2d_84 (MaxPooli  (None, 54, 54, 20)        0         
 ng2D)                                                           
                                                                 
 batch_normalization_84 (Ba  (None, 54, 54, 20)        80        
 tchNormalization)                                               
                                                                 
 conv2d_85 (Conv2D)          (None, 52, 52, 20)        3620      
                                                                 
 max_pooling2d_85 (MaxPooli  (None, 26, 26, 20)        0         
 ng2D)                                                           
                                                                 
 batch_normalization_85 (Ba  (None, 26, 26, 20)        80        
 tchNormalization)                                               
                                                                 
 conv2d_86 (Conv2D)          (None, 24, 24, 32)        5792      
                                                                 
 dropout_63 (Dropout)        (None, 24, 24, 32)        0         
                                                                 
 max_pooling2d_86 (MaxPooli  (None, 12, 12, 32)        0         
 ng2D)                                                           
                                                                 
 batch_normalization_86 (Ba  (None, 12, 12, 32)        128       
 tchNormalization)                                               
                                                                 
 conv2d_87 (Conv2D)          (None, 10, 10, 10)        2890      
                                                                 
 dropout_64 (Dropout)        (None, 10, 10, 10)        0         
                                                                 
 max_pooling2d_87 (MaxPooli  (None, 5, 5, 10)          0         
 ng2D)                                                           
                                                                 
 batch_normalization_87 (Ba  (None, 5, 5, 10)          40        
 tchNormalization)                                               
                                                                 
 flatten_21 (Flatten)        (None, 250)               0         
                                                                 
 dense_42 (Dense)            (None, 64)                16064     
                                                                 
 dropout_65 (Dropout)        (None, 64)                0         
                                                                 
 dense_43 (Dense)            (None, 3)                 195       
                                                                 
=================================================================
Total params: 30409 (118.79 KB)
Trainable params: 30245 (118.14 KB)
Non-trainable params: 164 (656.00 Byte)
_________________________________________________________________
None
Epoch 1/20
33/33 [==============================] - 5s 47ms/step - loss: 1.3974 - categorical_accuracy: 0.3686 - val_loss: 1.2729 - val_categorical_accuracy: 0.0022
…
33/33 [==============================] - 1s 21ms/step - loss: 1.0592 - categorical_accuracy: 0.3038 - val_loss: 1.1381 - val_categorical_accuracy: 0.1122
29/29 [==============================] - 0s 7ms/step - loss: 1.1381 - categorical_accuracy: 0.1122
eval [1.1380579471588135, 0.11222222447395325]
29/29 [==============================] - 0s 7ms/step - loss: 1.1381 - categorical_accuracy: 0.1122
20 6
Model: "sequential_22"
_________________________________________________________________
 Layer (type)                Output Shape              Param #   
=================================================================
 conv2d_88 (Conv2D)          (None, 107, 107, 20)      2180      
                                                                 
 max_pooling2d_88 (MaxPooli  (None, 53, 53, 20)        0         
 ng2D)                                                           
                                                                 
 batch_normalization_88 (Ba  (None, 53, 53, 20)        80        
 tchNormalization)                                               
                                                                 
 conv2d_89 (Conv2D)          (None, 51, 51, 20)        3620      
                                                                 
 max_pooling2d_89 (MaxPooli  (None, 25, 25, 20)        0         
 ng2D)                                                           
                                                                 
 batch_normalization_89 (Ba  (None, 25, 25, 20)        80        
 tchNormalization)                                               
                                                                 
 conv2d_90 (Conv2D)          (None, 23, 23, 32)        5792      
                                                                 
 dropout_66 (Dropout)        (None, 23, 23, 32)        0         
                                                                 
 max_pooling2d_90 (MaxPooli  (None, 11, 11, 32)        0         
 ng2D)                                                           
                                                                 
 batch_normalization_90 (Ba  (None, 11, 11, 32)        128       
 tchNormalization)                                               
                                                                 
 conv2d_91 (Conv2D)          (None, 9, 9, 10)          2890      
                                                                 
 dropout_67 (Dropout)        (None, 9, 9, 10)          0         
                                                                 
 max_pooling2d_91 (MaxPooli  (None, 4, 4, 10)          0         
 ng2D)                                                           
                                                                 
 batch_normalization_91 (Ba  (None, 4, 4, 10)          40        
 tchNormalization)                                               
                                                                 
 flatten_22 (Flatten)        (None, 160)               0         
                                                                 
 dense_44 (Dense)            (None, 64)                10304     
                                                                 
 dropout_68 (Dropout)        (None, 64)                0         
                                                                 
 dense_45 (Dense)            (None, 3)                 195       
                                                                 
=================================================================
Total params: 25309 (98.86 KB)
Trainable params: 25145 (98.22 KB)
Non-trainable params: 164 (656.00 Byte)
_________________________________________________________________
None
Epoch 1/20
33/33 [==============================] - 5s 51ms/step - loss: 1.4077 - categorical_accuracy: 0.3310 - val_loss: 1.1445 - val_categorical_accuracy: 0.8678
…
33/33 [==============================] - 1s 24ms/step - loss: 1.0848 - categorical_accuracy: 0.2819 - val_loss: 1.0918 - val_categorical_accuracy: 0.1156
29/29 [==============================] - 0s 5ms/step - loss: 1.0918 - categorical_accuracy: 0.1156
eval [1.0917634963989258, 0.11555555462837219]
29/29 [==============================] - 0s 4ms/step - loss: 1.0918 - categorical_accuracy: 0.1156
20 7
Model: "sequential_23"
_________________________________________________________________
 Layer (type)                Output Shape              Param #   
=================================================================
 conv2d_92 (Conv2D)          (None, 106, 106, 20)      2960      
                                                                 
 max_pooling2d_92 (MaxPooli  (None, 53, 53, 20)        0         
 ng2D)                                                           
                                                                 
 batch_normalization_92 (Ba  (None, 53, 53, 20)        80        
 tchNormalization)                                               
                                                                 
 conv2d_93 (Conv2D)          (None, 51, 51, 20)        3620      
                                                                 
 max_pooling2d_93 (MaxPooli  (None, 25, 25, 20)        0         
 ng2D)                                                           
                                                                 
 batch_normalization_93 (Ba  (None, 25, 25, 20)        80        
 tchNormalization)                                               
                                                                 
 conv2d_94 (Conv2D)          (None, 23, 23, 32)        5792      
                                                                 
 dropout_69 (Dropout)        (None, 23, 23, 32)        0         
                                                                 
 max_pooling2d_94 (MaxPooli  (None, 11, 11, 32)        0         
 ng2D)                                                           
                                                                 
 batch_normalization_94 (Ba  (None, 11, 11, 32)        128       
 tchNormalization)                                               
                                                                 
 conv2d_95 (Conv2D)          (None, 9, 9, 10)          2890      
                                                                 
 dropout_70 (Dropout)        (None, 9, 9, 10)          0         
                                                                 
 max_pooling2d_95 (MaxPooli  (None, 4, 4, 10)          0         
 ng2D)                                                           
                                                                 
 batch_normalization_95 (Ba  (None, 4, 4, 10)          40        
 tchNormalization)                                               
                                                                 
 flatten_23 (Flatten)        (None, 160)               0         
                                                                 
 dense_46 (Dense)            (None, 64)                10304     
                                                                 
 dropout_71 (Dropout)        (None, 64)                0         
                                                                 
 dense_47 (Dense)            (None, 3)                 195       
                                                                 
=================================================================
Total params: 26089 (101.91 KB)
Trainable params: 25925 (101.27 KB)
Non-trainable params: 164 (656.00 Byte)
_________________________________________________________________
None
Epoch 1/20
33/33 [==============================] - 4s 44ms/step - loss: 1.4779 - categorical_accuracy: 0.3867 - val_loss: 1.3842 - val_categorical_accuracy: 0.9811
…
33/33 [==============================] - 1s 29ms/step - loss: 1.0717 - categorical_accuracy: 0.2905 - val_loss: 1.1746 - val_categorical_accuracy: 0.0011
29/29 [==============================] - 0s 6ms/step - loss: 1.1746 - categorical_accuracy: 0.0011
eval [1.1746233701705933, 0.0011111111380159855]
29/29 [==============================] - 0s 7ms/step - loss: 1.1746 - categorical_accuracy: 0.0011
20 8
Model: "sequential_24"
_________________________________________________________________
 Layer (type)                Output Shape              Param #   
=================================================================
 conv2d_96 (Conv2D)          (None, 105, 105, 20)      3860      
                                                                 
 max_pooling2d_96 (MaxPooli  (None, 52, 52, 20)        0         
 ng2D)                                                           
                                                                 
 batch_normalization_96 (Ba  (None, 52, 52, 20)        80        
 tchNormalization)                                               
                                                                 
 conv2d_97 (Conv2D)          (None, 50, 50, 20)        3620      
                                                                 
 max_pooling2d_97 (MaxPooli  (None, 25, 25, 20)        0         
 ng2D)                                                           
                                                                 
 batch_normalization_97 (Ba  (None, 25, 25, 20)        80        
 tchNormalization)                                               
                                                                 
 conv2d_98 (Conv2D)          (None, 23, 23, 32)        5792      
                                                                 
 dropout_72 (Dropout)        (None, 23, 23, 32)        0         
                                                                 
 max_pooling2d_98 (MaxPooli  (None, 11, 11, 32)        0         
 ng2D)                                                           
                                                                 
 batch_normalization_98 (Ba  (None, 11, 11, 32)        128       
 tchNormalization)                                               
                                                                 
 conv2d_99 (Conv2D)          (None, 9, 9, 10)          2890      
                                                                 
 dropout_73 (Dropout)        (None, 9, 9, 10)          0         
                                                                 
 max_pooling2d_99 (MaxPooli  (None, 4, 4, 10)          0         
 ng2D)                                                           
                                                                 
 batch_normalization_99 (Ba  (None, 4, 4, 10)          40        
 tchNormalization)                                               
                                                                 
 flatten_24 (Flatten)        (None, 160)               0         
                                                                 
 dense_48 (Dense)            (None, 64)                10304     
                                                                 
 dropout_74 (Dropout)        (None, 64)                0         
                                                                 
 dense_49 (Dense)            (None, 3)                 195       
                                                                 
=================================================================
Total params: 26989 (105.43 KB)
Trainable params: 26825 (104.79 KB)
Non-trainable params: 164 (656.00 Byte)
_________________________________________________________________
None
Epoch 1/20
33/33 [==============================] - 5s 48ms/step - loss: 1.3822 - categorical_accuracy: 0.3252 - val_loss: 3.9254 - val_categorical_accuracy: 0.0000e+00
…
33/33 [==============================] - 1s 27ms/step - loss: 1.0745 - categorical_accuracy: 0.4310 - val_loss: 1.1916 - val_categorical_accuracy: 0.0000e+00
29/29 [==============================] - 0s 5ms/step - loss: 1.1916 - categorical_accuracy: 0.0000e+00
eval [1.191636323928833, 0.0]
29/29 [==============================] - 0s 6ms/step - loss: 1.1916 - categorical_accuracy: 0.0000e+00
20 9
Model: "sequential_25"
_________________________________________________________________
 Layer (type)                Output Shape              Param #   
=================================================================
 conv2d_100 (Conv2D)         (None, 104, 104, 20)      4880      
                                                                 
 max_pooling2d_100 (MaxPool  (None, 52, 52, 20)        0         
 ing2D)                                                          
                                                                 
 batch_normalization_100 (B  (None, 52, 52, 20)        80        
 atchNormalization)                                              
                                                                 
 conv2d_101 (Conv2D)         (None, 50, 50, 20)        3620      
                                                                 
 max_pooling2d_101 (MaxPool  (None, 25, 25, 20)        0         
 ing2D)                                                          
                                                                 
 batch_normalization_101 (B  (None, 25, 25, 20)        80        
 atchNormalization)                                              
                                                                 
 conv2d_102 (Conv2D)         (None, 23, 23, 32)        5792      
                                                                 
 dropout_75 (Dropout)        (None, 23, 23, 32)        0         
                                                                 
 max_pooling2d_102 (MaxPool  (None, 11, 11, 32)        0         
 ing2D)                                                          
                                                                 
 batch_normalization_102 (B  (None, 11, 11, 32)        128       
 atchNormalization)                                              
                                                                 
 conv2d_103 (Conv2D)         (None, 9, 9, 10)          2890      
                                                                 
 dropout_76 (Dropout)        (None, 9, 9, 10)          0         
                                                                 
 max_pooling2d_103 (MaxPool  (None, 4, 4, 10)          0         
 ing2D)                                                          
                                                                 
 batch_normalization_103 (B  (None, 4, 4, 10)          40        
 atchNormalization)                                              
                                                                 
 flatten_25 (Flatten)        (None, 160)               0         
                                                                 
 dense_50 (Dense)            (None, 64)                10304     
                                                                 
 dropout_77 (Dropout)        (None, 64)                0         
                                                                 
 dense_51 (Dense)            (None, 3)                 195       
                                                                 
=================================================================
Total params: 28009 (109.41 KB)
Trainable params: 27845 (108.77 KB)
Non-trainable params: 164 (656.00 Byte)
_________________________________________________________________
None
Epoch 1/20
33/33 [==============================] - 7s 60ms/step - loss: 1.4503 - categorical_accuracy: 0.3143 - val_loss: 2.1591 - val_categorical_accuracy: 0.0000e+00
…
33/33 [==============================] - 1s 26ms/step - loss: 1.0613 - categorical_accuracy: 0.3976 - val_loss: 1.0924 - val_categorical_accuracy: 0.1967
29/29 [==============================] - 0s 5ms/step - loss: 1.0924 - categorical_accuracy: 0.1967
eval [1.0924361944198608, 0.1966666728258133]
29/29 [==============================] - 0s 5ms/step - loss: 1.0924 - categorical_accuracy: 0.1967
30 2
Model: "sequential_26"
_________________________________________________________________
 Layer (type)                Output Shape              Param #   
=================================================================
 conv2d_104 (Conv2D)         (None, 111, 111, 30)      390       
                                                                 
 max_pooling2d_104 (MaxPool  (None, 55, 55, 30)        0         
 ing2D)                                                          
                                                                 
 batch_normalization_104 (B  (None, 55, 55, 30)        120       
 atchNormalization)                                              
                                                                 
 conv2d_105 (Conv2D)         (None, 53, 53, 30)        8130      
                                                                 
 max_pooling2d_105 (MaxPool  (None, 26, 26, 30)        0         
 ing2D)                                                          
                                                                 
 batch_normalization_105 (B  (None, 26, 26, 30)        120       
 atchNormalization)                                              
                                                                 
 conv2d_106 (Conv2D)         (None, 24, 24, 32)        8672      
                                                                 
 dropout_78 (Dropout)        (None, 24, 24, 32)        0         
                                                                 
 max_pooling2d_106 (MaxPool  (None, 12, 12, 32)        0         
 ing2D)                                                          
                                                                 
 batch_normalization_106 (B  (None, 12, 12, 32)        128       
 atchNormalization)                                              
                                                                 
 conv2d_107 (Conv2D)         (None, 10, 10, 15)        4335      
                                                                 
 dropout_79 (Dropout)        (None, 10, 10, 15)        0         
                                                                 
 max_pooling2d_107 (MaxPool  (None, 5, 5, 15)          0         
 ing2D)                                                          
                                                                 
 batch_normalization_107 (B  (None, 5, 5, 15)          60        
 atchNormalization)                                              
                                                                 
 flatten_26 (Flatten)        (None, 375)               0         
                                                                 
 dense_52 (Dense)            (None, 64)                24064     
                                                                 
 dropout_80 (Dropout)        (None, 64)                0         
                                                                 
 dense_53 (Dense)            (None, 3)                 195       
                                                                 
=================================================================
Total params: 46214 (180.52 KB)
Trainable params: 46000 (179.69 KB)
Non-trainable params: 214 (856.00 Byte)
_________________________________________________________________
None
Epoch 1/20
33/33 [==============================] - 6s 57ms/step - loss: 1.4400 - categorical_accuracy: 0.3043 - val_loss: 1.2092 - val_categorical_accuracy: 0.6356
…
33/33 [==============================] - 1s 27ms/step - loss: 1.0512 - categorical_accuracy: 0.2752 - val_loss: 1.2246 - val_categorical_accuracy: 0.0067
29/29 [==============================] - 0s 6ms/step - loss: 1.2246 - categorical_accuracy: 0.0067
eval [1.2246278524398804, 0.006666666828095913]
29/29 [==============================] - 0s 6ms/step - loss: 1.2246 - categorical_accuracy: 0.0067
30 3
Model: "sequential_27"
_________________________________________________________________
 Layer (type)                Output Shape              Param #   
=================================================================
 conv2d_108 (Conv2D)         (None, 110, 110, 30)      840       
                                                                 
 max_pooling2d_108 (MaxPool  (None, 55, 55, 30)        0         
 ing2D)                                                          
                                                                 
 batch_normalization_108 (B  (None, 55, 55, 30)        120       
 atchNormalization)                                              
                                                                 
 conv2d_109 (Conv2D)         (None, 53, 53, 30)        8130      
                                                                 
 max_pooling2d_109 (MaxPool  (None, 26, 26, 30)        0         
 ing2D)                                                          
                                                                 
 batch_normalization_109 (B  (None, 26, 26, 30)        120       
 atchNormalization)                                              
                                                                 
 conv2d_110 (Conv2D)         (None, 24, 24, 32)        8672      
                                                                 
 dropout_81 (Dropout)        (None, 24, 24, 32)        0         
                                                                 
 max_pooling2d_110 (MaxPool  (None, 12, 12, 32)        0         
 ing2D)                                                          
                                                                 
 batch_normalization_110 (B  (None, 12, 12, 32)        128       
 atchNormalization)                                              
                                                                 
 conv2d_111 (Conv2D)         (None, 10, 10, 15)        4335      
                                                                 
 dropout_82 (Dropout)        (None, 10, 10, 15)        0         
                                                                 
 max_pooling2d_111 (MaxPool  (None, 5, 5, 15)          0         
 ing2D)                                                          
                                                                 
 batch_normalization_111 (B  (None, 5, 5, 15)          60        
 atchNormalization)                                              
                                                                 
 flatten_27 (Flatten)        (None, 375)               0         
                                                                 
 dense_54 (Dense)            (None, 64)                24064     
                                                                 
 dropout_83 (Dropout)        (None, 64)                0         
                                                                 
 dense_55 (Dense)            (None, 3)                 195       
                                                                 
=================================================================
Total params: 46664 (182.28 KB)
Trainable params: 46450 (181.45 KB)
Non-trainable params: 214 (856.00 Byte)
_________________________________________________________________
None
Epoch 1/20
33/33 [==============================] - 5s 44ms/step - loss: 1.3936 - categorical_accuracy: 0.3238 - val_loss: 1.3742 - val_categorical_accuracy: 0.0467
…
33/33 [==============================] - 1s 27ms/step - loss: 1.0525 - categorical_accuracy: 0.2895 - val_loss: 1.1680 - val_categorical_accuracy: 0.0033
29/29 [==============================] - 0s 5ms/step - loss: 1.1680 - categorical_accuracy: 0.0033
eval [1.1679611206054688, 0.0033333334140479565]
29/29 [==============================] - 0s 6ms/step - loss: 1.1680 - categorical_accuracy: 0.0033
30 4
Model: "sequential_28"
_________________________________________________________________
 Layer (type)                Output Shape              Param #   
=================================================================
 conv2d_112 (Conv2D)         (None, 109, 109, 30)      1470      
                                                                 
 max_pooling2d_112 (MaxPool  (None, 54, 54, 30)        0         
 ing2D)                                                          
                                                                 
 batch_normalization_112 (B  (None, 54, 54, 30)        120       
 atchNormalization)                                              
                                                                 
 conv2d_113 (Conv2D)         (None, 52, 52, 30)        8130      
                                                                 
 max_pooling2d_113 (MaxPool  (None, 26, 26, 30)        0         
 ing2D)                                                          
                                                                 
 batch_normalization_113 (B  (None, 26, 26, 30)        120       
 atchNormalization)                                              
                                                                 
 conv2d_114 (Conv2D)         (None, 24, 24, 32)        8672      
                                                                 
 dropout_84 (Dropout)        (None, 24, 24, 32)        0         
                                                                 
 max_pooling2d_114 (MaxPool  (None, 12, 12, 32)        0         
 ing2D)                                                          
                                                                 
 batch_normalization_114 (B  (None, 12, 12, 32)        128       
 atchNormalization)                                              
                                                                 
 conv2d_115 (Conv2D)         (None, 10, 10, 15)        4335      
                                                                 
 dropout_85 (Dropout)        (None, 10, 10, 15)        0         
                                                                 
 max_pooling2d_115 (MaxPool  (None, 5, 5, 15)          0         
 ing2D)                                                          
                                                                 
 batch_normalization_115 (B  (None, 5, 5, 15)          60        
 atchNormalization)                                              
                                                                 
 flatten_28 (Flatten)        (None, 375)               0         
                                                                 
 dense_56 (Dense)            (None, 64)                24064     
                                                                 
 dropout_86 (Dropout)        (None, 64)                0         
                                                                 
 dense_57 (Dense)            (None, 3)                 195       
                                                                 
=================================================================
Total params: 47294 (184.74 KB)
Trainable params: 47080 (183.91 KB)
Non-trainable params: 214 (856.00 Byte)
_________________________________________________________________
None
Epoch 1/20
33/33 [==============================] - 7s 60ms/step - loss: 1.2988 - categorical_accuracy: 0.2671 - val_loss: 1.5468 - val_categorical_accuracy: 0.9944
…
33/33 [==============================] - 1s 31ms/step - loss: 1.0656 - categorical_accuracy: 0.2729 - val_loss: 1.2205 - val_categorical_accuracy: 0.0200
29/29 [==============================] - 0s 5ms/step - loss: 1.2205 - categorical_accuracy: 0.0200
eval [1.2204936742782593, 0.019999999552965164]
29/29 [==============================] - 0s 7ms/step - loss: 1.2205 - categorical_accuracy: 0.0200
30 5
Model: "sequential_29"
_________________________________________________________________
 Layer (type)                Output Shape              Param #   
=================================================================
 conv2d_116 (Conv2D)         (None, 108, 108, 30)      2280      
                                                                 
 max_pooling2d_116 (MaxPool  (None, 54, 54, 30)        0         
 ing2D)                                                          
                                                                 
 batch_normalization_116 (B  (None, 54, 54, 30)        120       
 atchNormalization)                                              
                                                                 
 conv2d_117 (Conv2D)         (None, 52, 52, 30)        8130      
                                                                 
 max_pooling2d_117 (MaxPool  (None, 26, 26, 30)        0         
 ing2D)                                                          
                                                                 
 batch_normalization_117 (B  (None, 26, 26, 30)        120       
 atchNormalization)                                              
                                                                 
 conv2d_118 (Conv2D)         (None, 24, 24, 32)        8672      
                                                                 
 dropout_87 (Dropout)        (None, 24, 24, 32)        0         
                                                                 
 max_pooling2d_118 (MaxPool  (None, 12, 12, 32)        0         
 ing2D)                                                          
                                                                 
 batch_normalization_118 (B  (None, 12, 12, 32)        128       
 atchNormalization)                                              
                                                                 
 conv2d_119 (Conv2D)         (None, 10, 10, 15)        4335      
                                                                 
 dropout_88 (Dropout)        (None, 10, 10, 15)        0         
                                                                 
 max_pooling2d_119 (MaxPool  (None, 5, 5, 15)          0         
 ing2D)                                                          
                                                                 
 batch_normalization_119 (B  (None, 5, 5, 15)          60        
 atchNormalization)                                              
                                                                 
 flatten_29 (Flatten)        (None, 375)               0         
                                                                 
 dense_58 (Dense)            (None, 64)                24064     
                                                                 
 dropout_89 (Dropout)        (None, 64)                0         
                                                                 
 dense_59 (Dense)            (None, 3)                 195       
                                                                 
=================================================================
Total params: 48104 (187.91 KB)
Trainable params: 47890 (187.07 KB)
Non-trainable params: 214 (856.00 Byte)
_________________________________________________________________
None
Epoch 1/20
33/33 [==============================] - 5s 42ms/step - loss: 1.4719 - categorical_accuracy: 0.3348 - val_loss: 1.5448 - val_categorical_accuracy: 0.0000e+00
…
33/33 [==============================] - 1s 31ms/step - loss: 1.0595 - categorical_accuracy: 0.3371 - val_loss: 1.1451 - val_categorical_accuracy: 0.0033
29/29 [==============================] - 0s 5ms/step - loss: 1.1451 - categorical_accuracy: 0.0033
eval [1.1451228857040405, 0.0033333334140479565]
29/29 [==============================] - 0s 7ms/step - loss: 1.1451 - categorical_accuracy: 0.0033
30 6
Model: "sequential_30"
_________________________________________________________________
 Layer (type)                Output Shape              Param #   
=================================================================
 conv2d_120 (Conv2D)         (None, 107, 107, 30)      3270      
                                                                 
 max_pooling2d_120 (MaxPool  (None, 53, 53, 30)        0         
 ing2D)                                                          
                                                                 
 batch_normalization_120 (B  (None, 53, 53, 30)        120       
 atchNormalization)                                              
                                                                 
 conv2d_121 (Conv2D)         (None, 51, 51, 30)        8130      
                                                                 
 max_pooling2d_121 (MaxPool  (None, 25, 25, 30)        0         
 ing2D)                                                          
                                                                 
 batch_normalization_121 (B  (None, 25, 25, 30)        120       
 atchNormalization)                                              
                                                                 
 conv2d_122 (Conv2D)         (None, 23, 23, 32)        8672      
                                                                 
 dropout_90 (Dropout)        (None, 23, 23, 32)        0         
                                                                 
 max_pooling2d_122 (MaxPool  (None, 11, 11, 32)        0         
 ing2D)                                                          
                                                                 
 batch_normalization_122 (B  (None, 11, 11, 32)        128       
 atchNormalization)                                              
                                                                 
 conv2d_123 (Conv2D)         (None, 9, 9, 15)          4335      
                                                                 
 dropout_91 (Dropout)        (None, 9, 9, 15)          0         
                                                                 
 max_pooling2d_123 (MaxPool  (None, 4, 4, 15)          0         
 ing2D)                                                          
                                                                 
 batch_normalization_123 (B  (None, 4, 4, 15)          60        
 atchNormalization)                                              
                                                                 
 flatten_30 (Flatten)        (None, 240)               0         
                                                                 
 dense_60 (Dense)            (None, 64)                15424     
                                                                 
 dropout_92 (Dropout)        (None, 64)                0         
                                                                 
 dense_61 (Dense)            (None, 3)                 195       
                                                                 
=================================================================
Total params: 40454 (158.02 KB)
Trainable params: 40240 (157.19 KB)
Non-trainable params: 214 (856.00 Byte)
_________________________________________________________________
None
Epoch 1/20
33/33 [==============================] - 7s 70ms/step - loss: 1.3924 - categorical_accuracy: 0.3148 - val_loss: 2.7507 - val_categorical_accuracy: 0.8556
…
33/33 [==============================] - 1s 28ms/step - loss: 1.0657 - categorical_accuracy: 0.3190 - val_loss: 1.1097 - val_categorical_accuracy: 0.1444
29/29 [==============================] - 0s 5ms/step - loss: 1.1097 - categorical_accuracy: 0.1444
eval [1.109657645225525, 0.14444445073604584]
29/29 [==============================] - 0s 5ms/step - loss: 1.1097 - categorical_accuracy: 0.1444
30 7
Model: "sequential_31"
_________________________________________________________________
 Layer (type)                Output Shape              Param #   
=================================================================
 conv2d_124 (Conv2D)         (None, 106, 106, 30)      4440      
                                                                 
 max_pooling2d_124 (MaxPool  (None, 53, 53, 30)        0         
 ing2D)                                                          
                                                                 
 batch_normalization_124 (B  (None, 53, 53, 30)        120       
 atchNormalization)                                              
                                                                 
 conv2d_125 (Conv2D)         (None, 51, 51, 30)        8130      
                                                                 
 max_pooling2d_125 (MaxPool  (None, 25, 25, 30)        0         
 ing2D)                                                          
                                                                 
 batch_normalization_125 (B  (None, 25, 25, 30)        120       
 atchNormalization)                                              
                                                                 
 conv2d_126 (Conv2D)         (None, 23, 23, 32)        8672      
                                                                 
 dropout_93 (Dropout)        (None, 23, 23, 32)        0         
                                                                 
 max_pooling2d_126 (MaxPool  (None, 11, 11, 32)        0         
 ing2D)                                                          
                                                                 
 batch_normalization_126 (B  (None, 11, 11, 32)        128       
 atchNormalization)                                              
                                                                 
 conv2d_127 (Conv2D)         (None, 9, 9, 15)          4335      
                                                                 
 dropout_94 (Dropout)        (None, 9, 9, 15)          0         
                                                                 
 max_pooling2d_127 (MaxPool  (None, 4, 4, 15)          0         
 ing2D)                                                          
                                                                 
 batch_normalization_127 (B  (None, 4, 4, 15)          60        
 atchNormalization)                                              
                                                                 
 flatten_31 (Flatten)        (None, 240)               0         
                                                                 
 dense_62 (Dense)            (None, 64)                15424     
                                                                 
 dropout_95 (Dropout)        (None, 64)                0         
                                                                 
 dense_63 (Dense)            (None, 3)                 195       
                                                                 
=================================================================
Total params: 41624 (162.59 KB)
Trainable params: 41410 (161.76 KB)
Non-trainable params: 214 (856.00 Byte)
_________________________________________________________________
None
Epoch 1/20
33/33 [==============================] - 5s 52ms/step - loss: 1.4643 - categorical_accuracy: 0.2738 - val_loss: 2.1263 - val_categorical_accuracy: 0.0000e+00
…
33/33 [==============================] - 1s 32ms/step - loss: 1.0706 - categorical_accuracy: 0.3252 - val_loss: 1.0933 - val_categorical_accuracy: 0.1633
29/29 [==============================] - 0s 6ms/step - loss: 1.0933 - categorical_accuracy: 0.1633
eval [1.0933295488357544, 0.16333332657814026]
29/29 [==============================] - 0s 6ms/step - loss: 1.0933 - categorical_accuracy: 0.1633
30 8
Model: "sequential_32"
_________________________________________________________________
 Layer (type)                Output Shape              Param #   
=================================================================
 conv2d_128 (Conv2D)         (None, 105, 105, 30)      5790      
                                                                 
 max_pooling2d_128 (MaxPool  (None, 52, 52, 30)        0         
 ing2D)                                                          
                                                                 
 batch_normalization_128 (B  (None, 52, 52, 30)        120       
 atchNormalization)                                              
                                                                 
 conv2d_129 (Conv2D)         (None, 50, 50, 30)        8130      
                                                                 
 max_pooling2d_129 (MaxPool  (None, 25, 25, 30)        0         
 ing2D)                                                          
                                                                 
 batch_normalization_129 (B  (None, 25, 25, 30)        120       
 atchNormalization)                                              
                                                                 
 conv2d_130 (Conv2D)         (None, 23, 23, 32)        8672      
                                                                 
 dropout_96 (Dropout)        (None, 23, 23, 32)        0         
                                                                 
 max_pooling2d_130 (MaxPool  (None, 11, 11, 32)        0         
 ing2D)                                                          
                                                                 
 batch_normalization_130 (B  (None, 11, 11, 32)        128       
 atchNormalization)                                              
                                                                 
 conv2d_131 (Conv2D)         (None, 9, 9, 15)          4335      
                                                                 
 dropout_97 (Dropout)        (None, 9, 9, 15)          0         
                                                                 
 max_pooling2d_131 (MaxPool  (None, 4, 4, 15)          0         
 ing2D)                                                          
                                                                 
 batch_normalization_131 (B  (None, 4, 4, 15)          60        
 atchNormalization)                                              
                                                                 
 flatten_32 (Flatten)        (None, 240)               0         
                                                                 
 dense_64 (Dense)            (None, 64)                15424     
                                                                 
 dropout_98 (Dropout)        (None, 64)                0         
                                                                 
 dense_65 (Dense)            (None, 3)                 195       
                                                                 
=================================================================
Total params: 42974 (167.87 KB)
Trainable params: 42760 (167.03 KB)
Non-trainable params: 214 (856.00 Byte)
_________________________________________________________________
None
Epoch 1/20
33/33 [==============================] - 6s 62ms/step - loss: 1.4183 - categorical_accuracy: 0.3229 - val_loss: 2.2157 - val_categorical_accuracy: 0.0000e+00
…
33/33 [==============================] - 1s 34ms/step - loss: 1.0651 - categorical_accuracy: 0.2981 - val_loss: 1.5894 - val_categorical_accuracy: 0.0000e+00
29/29 [==============================] - 0s 6ms/step - loss: 1.5894 - categorical_accuracy: 0.0000e+00
eval [1.58941650390625, 0.0]
29/29 [==============================] - 0s 5ms/step - loss: 1.5894 - categorical_accuracy: 0.0000e+00
30 9
Model: "sequential_33"
_________________________________________________________________
 Layer (type)                Output Shape              Param #   
=================================================================
 conv2d_132 (Conv2D)         (None, 104, 104, 30)      7320      
                                                                 
 max_pooling2d_132 (MaxPool  (None, 52, 52, 30)        0         
 ing2D)                                                          
                                                                 
 batch_normalization_132 (B  (None, 52, 52, 30)        120       
 atchNormalization)                                              
                                                                 
 conv2d_133 (Conv2D)         (None, 50, 50, 30)        8130      
                                                                 
 max_pooling2d_133 (MaxPool  (None, 25, 25, 30)        0         
 ing2D)                                                          
                                                                 
 batch_normalization_133 (B  (None, 25, 25, 30)        120       
 atchNormalization)                                              
                                                                 
 conv2d_134 (Conv2D)         (None, 23, 23, 32)        8672      
                                                                 
 dropout_99 (Dropout)        (None, 23, 23, 32)        0         
                                                                 
 max_pooling2d_134 (MaxPool  (None, 11, 11, 32)        0         
 ing2D)                                                          
                                                                 
 batch_normalization_134 (B  (None, 11, 11, 32)        128       
 atchNormalization)                                              
                                                                 
 conv2d_135 (Conv2D)         (None, 9, 9, 15)          4335      
                                                                 
 dropout_100 (Dropout)       (None, 9, 9, 15)          0         
                                                                 
 max_pooling2d_135 (MaxPool  (None, 4, 4, 15)          0         
 ing2D)                                                          
                                                                 
 batch_normalization_135 (B  (None, 4, 4, 15)          60        
 atchNormalization)                                              
                                                                 
 flatten_33 (Flatten)        (None, 240)               0         
                                                                 
 dense_66 (Dense)            (None, 64)                15424     
                                                                 
 dropout_101 (Dropout)       (None, 64)                0         
                                                                 
 dense_67 (Dense)            (None, 3)                 195       
                                                                 
=================================================================
Total params: 44504 (173.84 KB)
Trainable params: 44290 (173.01 KB)
Non-trainable params: 214 (856.00 Byte)
_________________________________________________________________
None
Epoch 1/20
33/33 [==============================] - 8s 61ms/step - loss: 1.4068 - categorical_accuracy: 0.3352 - val_loss: 1.1258 - val_categorical_accuracy: 0.6789
…
33/33 [==============================] - 1s 30ms/step - loss: 1.0782 - categorical_accuracy: 0.3338 - val_loss: 1.0972 - val_categorical_accuracy: 0.7689
29/29 [==============================] - 0s 7ms/step - loss: 1.0972 - categorical_accuracy: 0.7689
eval [1.0971781015396118, 0.7688888907432556]
29/29 [==============================] - 0s 7ms/step - loss: 1.0972 - categorical_accuracy: 0.7689
40 2
Model: "sequential_34"
_________________________________________________________________
 Layer (type)                Output Shape              Param #   
=================================================================
 conv2d_136 (Conv2D)         (None, 111, 111, 40)      520       
                                                                 
 max_pooling2d_136 (MaxPool  (None, 55, 55, 40)        0         
 ing2D)                                                          
                                                                 
 batch_normalization_136 (B  (None, 55, 55, 40)        160       
 atchNormalization)                                              
                                                                 
 conv2d_137 (Conv2D)         (None, 53, 53, 40)        14440     
                                                                 
 max_pooling2d_137 (MaxPool  (None, 26, 26, 40)        0         
 ing2D)                                                          
                                                                 
 batch_normalization_137 (B  (None, 26, 26, 40)        160       
 atchNormalization)                                              
                                                                 
 conv2d_138 (Conv2D)         (None, 24, 24, 32)        11552     
                                                                 
 dropout_102 (Dropout)       (None, 24, 24, 32)        0         
                                                                 
 max_pooling2d_138 (MaxPool  (None, 12, 12, 32)        0         
 ing2D)                                                          
                                                                 
 batch_normalization_138 (B  (None, 12, 12, 32)        128       
 atchNormalization)                                              
                                                                 
 conv2d_139 (Conv2D)         (None, 10, 10, 20)        5780      
                                                                 
 dropout_103 (Dropout)       (None, 10, 10, 20)        0         
                                                                 
 max_pooling2d_139 (MaxPool  (None, 5, 5, 20)          0         
 ing2D)                                                          
                                                                 
 batch_normalization_139 (B  (None, 5, 5, 20)          80        
 atchNormalization)                                              
                                                                 
 flatten_34 (Flatten)        (None, 500)               0         
                                                                 
 dense_68 (Dense)            (None, 64)                32064     
                                                                 
 dropout_104 (Dropout)       (None, 64)                0         
                                                                 
 dense_69 (Dense)            (None, 3)                 195       
                                                                 
=================================================================
Total params: 65079 (254.21 KB)
Trainable params: 64815 (253.18 KB)
Non-trainable params: 264 (1.03 KB)
_________________________________________________________________
None
Epoch 1/20
33/33 [==============================] - 6s 70ms/step - loss: 1.4375 - categorical_accuracy: 0.3319 - val_loss: 1.8248 - val_categorical_accuracy: 0.6256
…
33/33 [==============================] - 1s 38ms/step - loss: 1.0422 - categorical_accuracy: 0.4057 - val_loss: 1.1112 - val_categorical_accuracy: 0.0389
29/29 [==============================] - 0s 6ms/step - loss: 1.1112 - categorical_accuracy: 0.0389
eval [1.1111818552017212, 0.03888889029622078]
29/29 [==============================] - 0s 7ms/step - loss: 1.1112 - categorical_accuracy: 0.0389
40 3
Model: "sequential_35"
_________________________________________________________________
 Layer (type)                Output Shape              Param #   
=================================================================
 conv2d_140 (Conv2D)         (None, 110, 110, 40)      1120      
                                                                 
 max_pooling2d_140 (MaxPool  (None, 55, 55, 40)        0         
 ing2D)                                                          
                                                                 
 batch_normalization_140 (B  (None, 55, 55, 40)        160       
 atchNormalization)                                              
                                                                 
 conv2d_141 (Conv2D)         (None, 53, 53, 40)        14440     
                                                                 
 max_pooling2d_141 (MaxPool  (None, 26, 26, 40)        0         
 ing2D)                                                          
                                                                 
 batch_normalization_141 (B  (None, 26, 26, 40)        160       
 atchNormalization)                                              
                                                                 
 conv2d_142 (Conv2D)         (None, 24, 24, 32)        11552     
                                                                 
 dropout_105 (Dropout)       (None, 24, 24, 32)        0         
                                                                 
 max_pooling2d_142 (MaxPool  (None, 12, 12, 32)        0         
 ing2D)                                                          
                                                                 
 batch_normalization_142 (B  (None, 12, 12, 32)        128       
 atchNormalization)                                              
                                                                 
 conv2d_143 (Conv2D)         (None, 10, 10, 20)        5780      
                                                                 
 dropout_106 (Dropout)       (None, 10, 10, 20)        0         
                                                                 
 max_pooling2d_143 (MaxPool  (None, 5, 5, 20)          0         
 ing2D)                                                          
                                                                 
 batch_normalization_143 (B  (None, 5, 5, 20)          80        
 atchNormalization)                                              
                                                                 
 flatten_35 (Flatten)        (None, 500)               0         
                                                                 
 dense_70 (Dense)            (None, 64)                32064     
                                                                 
 dropout_107 (Dropout)       (None, 64)                0         
                                                                 
 dense_71 (Dense)            (None, 3)                 195       
                                                                 
=================================================================
Total params: 65679 (256.56 KB)
Trainable params: 65415 (255.53 KB)
Non-trainable params: 264 (1.03 KB)
_________________________________________________________________
None
Epoch 1/20
33/33 [==============================] - 7s 67ms/step - loss: 1.4197 - categorical_accuracy: 0.3081 - val_loss: 2.4317 - val_categorical_accuracy: 0.0011
…
33/33 [==============================] - 1s 41ms/step - loss: 1.0602 - categorical_accuracy: 0.3695 - val_loss: 1.1121 - val_categorical_accuracy: 0.0056
29/29 [==============================] - 0s 7ms/step - loss: 1.1121 - categorical_accuracy: 0.0056
eval [1.11211359500885, 0.0055555556900799274]
29/29 [==============================] - 0s 7ms/step - loss: 1.1121 - categorical_accuracy: 0.0056
40 4
Model: "sequential_36"
_________________________________________________________________
 Layer (type)                Output Shape              Param #   
=================================================================
 conv2d_144 (Conv2D)         (None, 109, 109, 40)      1960      
                                                                 
 max_pooling2d_144 (MaxPool  (None, 54, 54, 40)        0         
 ing2D)                                                          
                                                                 
 batch_normalization_144 (B  (None, 54, 54, 40)        160       
 atchNormalization)                                              
                                                                 
 conv2d_145 (Conv2D)         (None, 52, 52, 40)        14440     
                                                                 
 max_pooling2d_145 (MaxPool  (None, 26, 26, 40)        0         
 ing2D)                                                          
                                                                 
 batch_normalization_145 (B  (None, 26, 26, 40)        160       
 atchNormalization)                                              
                                                                 
 conv2d_146 (Conv2D)         (None, 24, 24, 32)        11552     
                                                                 
 dropout_108 (Dropout)       (None, 24, 24, 32)        0         
                                                                 
 max_pooling2d_146 (MaxPool  (None, 12, 12, 32)        0         
 ing2D)                                                          
                                                                 
 batch_normalization_146 (B  (None, 12, 12, 32)        128       
 atchNormalization)                                              
                                                                 
 conv2d_147 (Conv2D)         (None, 10, 10, 20)        5780      
                                                                 
 dropout_109 (Dropout)       (None, 10, 10, 20)        0         
                                                                 
 max_pooling2d_147 (MaxPool  (None, 5, 5, 20)          0         
 ing2D)                                                          
                                                                 
 batch_normalization_147 (B  (None, 5, 5, 20)          80        
 atchNormalization)                                              
                                                                 
 flatten_36 (Flatten)        (None, 500)               0         
                                                                 
 dense_72 (Dense)            (None, 64)                32064     
                                                                 
 dropout_110 (Dropout)       (None, 64)                0         
                                                                 
 dense_73 (Dense)            (None, 3)                 195       
                                                                 
=================================================================
Total params: 66519 (259.84 KB)
Trainable params: 66255 (258.81 KB)
Non-trainable params: 264 (1.03 KB)
_________________________________________________________________
None
Epoch 1/20
33/33 [==============================] - 7s 75ms/step - loss: 1.3973 - categorical_accuracy: 0.3157 - val_loss: 2.0122 - val_categorical_accuracy: 0.0000e+00
…
33/33 [==============================] - 1s 39ms/step - loss: 1.0555 - categorical_accuracy: 0.3295 - val_loss: 1.1065 - val_categorical_accuracy: 0.0156
29/29 [==============================] - 0s 6ms/step - loss: 1.1065 - categorical_accuracy: 0.0156
eval [1.1064757108688354, 0.015555555932223797]
29/29 [==============================] - 0s 5ms/step - loss: 1.1065 - categorical_accuracy: 0.0156
40 5
Model: "sequential_37"
_________________________________________________________________
 Layer (type)                Output Shape              Param #   
=================================================================
 conv2d_148 (Conv2D)         (None, 108, 108, 40)      3040      
                                                                 
 max_pooling2d_148 (MaxPool  (None, 54, 54, 40)        0         
 ing2D)                                                          
                                                                 
 batch_normalization_148 (B  (None, 54, 54, 40)        160       
 atchNormalization)                                              
                                                                 
 conv2d_149 (Conv2D)         (None, 52, 52, 40)        14440     
                                                                 
 max_pooling2d_149 (MaxPool  (None, 26, 26, 40)        0         
 ing2D)                                                          
                                                                 
 batch_normalization_149 (B  (None, 26, 26, 40)        160       
 atchNormalization)                                              
                                                                 
 conv2d_150 (Conv2D)         (None, 24, 24, 32)        11552     
                                                                 
 dropout_111 (Dropout)       (None, 24, 24, 32)        0         
                                                                 
 max_pooling2d_150 (MaxPool  (None, 12, 12, 32)        0         
 ing2D)                                                          
                                                                 
 batch_normalization_150 (B  (None, 12, 12, 32)        128       
 atchNormalization)                                              
                                                                 
 conv2d_151 (Conv2D)         (None, 10, 10, 20)        5780      
                                                                 
 dropout_112 (Dropout)       (None, 10, 10, 20)        0         
                                                                 
 max_pooling2d_151 (MaxPool  (None, 5, 5, 20)          0         
 ing2D)                                                          
                                                                 
 batch_normalization_151 (B  (None, 5, 5, 20)          80        
 atchNormalization)                                              
                                                                 
 flatten_37 (Flatten)        (None, 500)               0         
                                                                 
 dense_74 (Dense)            (None, 64)                32064     
                                                                 
 dropout_113 (Dropout)       (None, 64)                0         
                                                                 
 dense_75 (Dense)            (None, 3)                 195       
                                                                 
=================================================================
Total params: 67599 (264.06 KB)
Trainable params: 67335 (263.03 KB)
Non-trainable params: 264 (1.03 KB)
_________________________________________________________________
None
Epoch 1/20
33/33 [==============================] - 6s 55ms/step - loss: 1.4566 - categorical_accuracy: 0.2938 - val_loss: 1.6614 - val_categorical_accuracy: 0.0000e+00
…
33/33 [==============================] - 1s 42ms/step - loss: 1.0627 - categorical_accuracy: 0.4276 - val_loss: 1.4956 - val_categorical_accuracy: 0.0000e+00
29/29 [==============================] - 0s 7ms/step - loss: 1.4956 - categorical_accuracy: 0.0000e+00
eval [1.4956154823303223, 0.0]
29/29 [==============================] - 0s 8ms/step - loss: 1.4956 - categorical_accuracy: 0.0000e+00
40 6
Model: "sequential_38"
_________________________________________________________________
 Layer (type)                Output Shape              Param #   
=================================================================
 conv2d_152 (Conv2D)         (None, 107, 107, 40)      4360      
                                                                 
 max_pooling2d_152 (MaxPool  (None, 53, 53, 40)        0         
 ing2D)                                                          
                                                                 
 batch_normalization_152 (B  (None, 53, 53, 40)        160       
 atchNormalization)                                              
                                                                 
 conv2d_153 (Conv2D)         (None, 51, 51, 40)        14440     
                                                                 
 max_pooling2d_153 (MaxPool  (None, 25, 25, 40)        0         
 ing2D)                                                          
                                                                 
 batch_normalization_153 (B  (None, 25, 25, 40)        160       
 atchNormalization)                                              
                                                                 
 conv2d_154 (Conv2D)         (None, 23, 23, 32)        11552     
                                                                 
 dropout_114 (Dropout)       (None, 23, 23, 32)        0         
                                                                 
 max_pooling2d_154 (MaxPool  (None, 11, 11, 32)        0         
 ing2D)                                                          
                                                                 
 batch_normalization_154 (B  (None, 11, 11, 32)        128       
 atchNormalization)                                              
                                                                 
 conv2d_155 (Conv2D)         (None, 9, 9, 20)          5780      
                                                                 
 dropout_115 (Dropout)       (None, 9, 9, 20)          0         
                                                                 
 max_pooling2d_155 (MaxPool  (None, 4, 4, 20)          0         
 ing2D)                                                          
                                                                 
 batch_normalization_155 (B  (None, 4, 4, 20)          80        
 atchNormalization)                                              
                                                                 
 flatten_38 (Flatten)        (None, 320)               0         
                                                                 
 dense_76 (Dense)            (None, 64)                20544     
                                                                 
 dropout_116 (Dropout)       (None, 64)                0         
                                                                 
 dense_77 (Dense)            (None, 3)                 195       
                                                                 
=================================================================
Total params: 57399 (224.21 KB)
Trainable params: 57135 (223.18 KB)
Non-trainable params: 264 (1.03 KB)
_________________________________________________________________
None
Epoch 1/20
33/33 [==============================] - 6s 77ms/step - loss: 1.4222 - categorical_accuracy: 0.3433 - val_loss: 1.3770 - val_categorical_accuracy: 0.9767
…
33/33 [==============================] - 1s 42ms/step - loss: 1.0586 - categorical_accuracy: 0.3514 - val_loss: 1.2965 - val_categorical_accuracy: 0.0100
29/29 [==============================] - 0s 6ms/step - loss: 1.2965 - categorical_accuracy: 0.0100
eval [1.29654061794281, 0.009999999776482582]
29/29 [==============================] - 0s 6ms/step - loss: 1.2965 - categorical_accuracy: 0.0100
40 7
Model: "sequential_39"
_________________________________________________________________
 Layer (type)                Output Shape              Param #   
=================================================================
 conv2d_156 (Conv2D)         (None, 106, 106, 40)      5920      
                                                                 
 max_pooling2d_156 (MaxPool  (None, 53, 53, 40)        0         
 ing2D)                                                          
                                                                 
 batch_normalization_156 (B  (None, 53, 53, 40)        160       
 atchNormalization)                                              
                                                                 
 conv2d_157 (Conv2D)         (None, 51, 51, 40)        14440     
                                                                 
 max_pooling2d_157 (MaxPool  (None, 25, 25, 40)        0         
 ing2D)                                                          
                                                                 
 batch_normalization_157 (B  (None, 25, 25, 40)        160       
 atchNormalization)                                              
                                                                 
 conv2d_158 (Conv2D)         (None, 23, 23, 32)        11552     
                                                                 
 dropout_117 (Dropout)       (None, 23, 23, 32)        0         
                                                                 
 max_pooling2d_158 (MaxPool  (None, 11, 11, 32)        0         
 ing2D)                                                          
                                                                 
 batch_normalization_158 (B  (None, 11, 11, 32)        128       
 atchNormalization)                                              
                                                                 
 conv2d_159 (Conv2D)         (None, 9, 9, 20)          5780      
                                                                 
 dropout_118 (Dropout)       (None, 9, 9, 20)          0         
                                                                 
 max_pooling2d_159 (MaxPool  (None, 4, 4, 20)          0         
 ing2D)                                                          
                                                                 
 batch_normalization_159 (B  (None, 4, 4, 20)          80        
 atchNormalization)                                              
                                                                 
 flatten_39 (Flatten)        (None, 320)               0         
                                                                 
 dense_78 (Dense)            (None, 64)                20544     
                                                                 
 dropout_119 (Dropout)       (None, 64)                0         
                                                                 
 dense_79 (Dense)            (None, 3)                 195       
                                                                 
=================================================================
Total params: 58959 (230.31 KB)
Trainable params: 58695 (229.28 KB)
Non-trainable params: 264 (1.03 KB)
_________________________________________________________________
None
Epoch 1/20
33/33 [==============================] - 5s 59ms/step - loss: 1.4810 - categorical_accuracy: 0.3343 - val_loss: 2.8597 - val_categorical_accuracy: 0.0000e+00
…
33/33 [==============================] - 1s 41ms/step - loss: 1.0674 - categorical_accuracy: 0.3229 - val_loss: 1.3239 - val_categorical_accuracy: 0.0022
29/29 [==============================] - 0s 8ms/step - loss: 1.3239 - categorical_accuracy: 0.0022
eval [1.3238927125930786, 0.002222222276031971]
29/29 [==============================] - 0s 6ms/step - loss: 1.3239 - categorical_accuracy: 0.0022
40 8
Model: "sequential_40"
_________________________________________________________________
 Layer (type)                Output Shape              Param #   
=================================================================
 conv2d_160 (Conv2D)         (None, 105, 105, 40)      7720      
                                                                 
 max_pooling2d_160 (MaxPool  (None, 52, 52, 40)        0         
 ing2D)                                                          
                                                                 
 batch_normalization_160 (B  (None, 52, 52, 40)        160       
 atchNormalization)                                              
                                                                 
 conv2d_161 (Conv2D)         (None, 50, 50, 40)        14440     
                                                                 
 max_pooling2d_161 (MaxPool  (None, 25, 25, 40)        0         
 ing2D)                                                          
                                                                 
 batch_normalization_161 (B  (None, 25, 25, 40)        160       
 atchNormalization)                                              
                                                                 
 conv2d_162 (Conv2D)         (None, 23, 23, 32)        11552     
                                                                 
 dropout_120 (Dropout)       (None, 23, 23, 32)        0         
                                                                 
 max_pooling2d_162 (MaxPool  (None, 11, 11, 32)        0         
 ing2D)                                                          
                                                                 
 batch_normalization_162 (B  (None, 11, 11, 32)        128       
 atchNormalization)                                              
                                                                 
 conv2d_163 (Conv2D)         (None, 9, 9, 20)          5780      
                                                                 
 dropout_121 (Dropout)       (None, 9, 9, 20)          0         
                                                                 
 max_pooling2d_163 (MaxPool  (None, 4, 4, 20)          0         
 ing2D)                                                          
                                                                 
 batch_normalization_163 (B  (None, 4, 4, 20)          80        
 atchNormalization)                                              
                                                                 
 flatten_40 (Flatten)        (None, 320)               0         
                                                                 
 dense_80 (Dense)            (None, 64)                20544     
                                                                 
 dropout_122 (Dropout)       (None, 64)                0         
                                                                 
 dense_81 (Dense)            (None, 3)                 195       
                                                                 
=================================================================
Total params: 60759 (237.34 KB)
Trainable params: 60495 (236.31 KB)
Non-trainable params: 264 (1.03 KB)
_________________________________________________________________
None
Epoch 1/20
33/33 [==============================] - 7s 85ms/step - loss: 1.4723 - categorical_accuracy: 0.2876 - val_loss: 1.3205 - val_categorical_accuracy: 0.0078
…
33/33 [==============================] - 1s 45ms/step - loss: 1.0652 - categorical_accuracy: 0.3648 - val_loss: 1.1173 - val_categorical_accuracy: 0.0544
29/29 [==============================] - 0s 7ms/step - loss: 1.1173 - categorical_accuracy: 0.0544
eval [1.1172605752944946, 0.05444444343447685]
29/29 [==============================] - 0s 7ms/step - loss: 1.1173 - categorical_accuracy: 0.0544
40 9
Model: "sequential_41"
_________________________________________________________________
 Layer (type)                Output Shape              Param #   
=================================================================
 conv2d_164 (Conv2D)         (None, 104, 104, 40)      9760      
                                                                 
 max_pooling2d_164 (MaxPool  (None, 52, 52, 40)        0         
 ing2D)                                                          
                                                                 
 batch_normalization_164 (B  (None, 52, 52, 40)        160       
 atchNormalization)                                              
                                                                 
 conv2d_165 (Conv2D)         (None, 50, 50, 40)        14440     
                                                                 
 max_pooling2d_165 (MaxPool  (None, 25, 25, 40)        0         
 ing2D)                                                          
                                                                 
 batch_normalization_165 (B  (None, 25, 25, 40)        160       
 atchNormalization)                                              
                                                                 
 conv2d_166 (Conv2D)         (None, 23, 23, 32)        11552     
                                                                 
 dropout_123 (Dropout)       (None, 23, 23, 32)        0         
                                                                 
 max_pooling2d_166 (MaxPool  (None, 11, 11, 32)        0         
 ing2D)                                                          
                                                                 
 batch_normalization_166 (B  (None, 11, 11, 32)        128       
 atchNormalization)                                              
                                                                 
 conv2d_167 (Conv2D)         (None, 9, 9, 20)          5780      
                                                                 
 dropout_124 (Dropout)       (None, 9, 9, 20)          0         
                                                                 
 max_pooling2d_167 (MaxPool  (None, 4, 4, 20)          0         
 ing2D)                                                          
                                                                 
 batch_normalization_167 (B  (None, 4, 4, 20)          80        
 atchNormalization)                                              
                                                                 
 flatten_41 (Flatten)        (None, 320)               0         
                                                                 
 dense_82 (Dense)            (None, 64)                20544     
                                                                 
 dropout_125 (Dropout)       (None, 64)                0         
                                                                 
 dense_83 (Dense)            (None, 3)                 195       
                                                                 
=================================================================
Total params: 62799 (245.31 KB)
Trainable params: 62535 (244.28 KB)
Non-trainable params: 264 (1.03 KB)
_________________________________________________________________
None
Epoch 1/20
33/33 [==============================] - 8s 64ms/step - loss: 1.4604 - categorical_accuracy: 0.3043 - val_loss: 3.5977 - val_categorical_accuracy: 0.0000e+00
…
33/33 [==============================] - 1s 44ms/step - loss: 1.0680 - categorical_accuracy: 0.2829 - val_loss: 1.0909 - val_categorical_accuracy: 0.0667
29/29 [==============================] - 0s 7ms/step - loss: 1.0909 - categorical_accuracy: 0.0667
eval [1.0908738374710083, 0.06666667014360428]
29/29 [==============================] - 0s 7ms/step - loss: 1.0909 - categorical_accuracy: 0.0667
50 2
Model: "sequential_42"
_________________________________________________________________
 Layer (type)                Output Shape              Param #   
=================================================================
 conv2d_168 (Conv2D)         (None, 111, 111, 50)      650       
                                                                 
 max_pooling2d_168 (MaxPool  (None, 55, 55, 50)        0         
 ing2D)                                                          
                                                                 
 batch_normalization_168 (B  (None, 55, 55, 50)        200       
 atchNormalization)                                              
                                                                 
 conv2d_169 (Conv2D)         (None, 53, 53, 50)        22550     
                                                                 
 max_pooling2d_169 (MaxPool  (None, 26, 26, 50)        0         
 ing2D)                                                          
                                                                 
 batch_normalization_169 (B  (None, 26, 26, 50)        200       
 atchNormalization)                                              
                                                                 
 conv2d_170 (Conv2D)         (None, 24, 24, 32)        14432     
                                                                 
 dropout_126 (Dropout)       (None, 24, 24, 32)        0         
                                                                 
 max_pooling2d_170 (MaxPool  (None, 12, 12, 32)        0         
 ing2D)                                                          
                                                                 
 batch_normalization_170 (B  (None, 12, 12, 32)        128       
 atchNormalization)                                              
                                                                 
 conv2d_171 (Conv2D)         (None, 10, 10, 25)        7225      
                                                                 
 dropout_127 (Dropout)       (None, 10, 10, 25)        0         
                                                                 
 max_pooling2d_171 (MaxPool  (None, 5, 5, 25)          0         
 ing2D)                                                          
                                                                 
 batch_normalization_171 (B  (None, 5, 5, 25)          100       
 atchNormalization)                                              
                                                                 
 flatten_42 (Flatten)        (None, 625)               0         
                                                                 
 dense_84 (Dense)            (None, 64)                40064     
                                                                 
 dropout_128 (Dropout)       (None, 64)                0         
                                                                 
 dense_85 (Dense)            (None, 3)                 195       
                                                                 
=================================================================
Total params: 85744 (334.94 KB)
Trainable params: 85430 (333.71 KB)
Non-trainable params: 314 (1.23 KB)
_________________________________________________________________
None
Epoch 1/20
33/33 [==============================] - 7s 78ms/step - loss: 1.4268 - categorical_accuracy: 0.3348 - val_loss: 3.8081 - val_categorical_accuracy: 0.0011
…
33/33 [==============================] - 1s 44ms/step - loss: 1.0381 - categorical_accuracy: 0.3271 - val_loss: 1.1187 - val_categorical_accuracy: 0.0256
29/29 [==============================] - 0s 6ms/step - loss: 1.1187 - categorical_accuracy: 0.0256
eval [1.1186516284942627, 0.025555554777383804]
29/29 [==============================] - 0s 7ms/step - loss: 1.1187 - categorical_accuracy: 0.0256
50 3
Model: "sequential_43"
_________________________________________________________________
 Layer (type)                Output Shape              Param #   
=================================================================
 conv2d_172 (Conv2D)         (None, 110, 110, 50)      1400      
                                                                 
 max_pooling2d_172 (MaxPool  (None, 55, 55, 50)        0         
 ing2D)                                                          
                                                                 
 batch_normalization_172 (B  (None, 55, 55, 50)        200       
 atchNormalization)                                              
                                                                 
 conv2d_173 (Conv2D)         (None, 53, 53, 50)        22550     
                                                                 
 max_pooling2d_173 (MaxPool  (None, 26, 26, 50)        0         
 ing2D)                                                          
                                                                 
 batch_normalization_173 (B  (None, 26, 26, 50)        200       
 atchNormalization)                                              
                                                                 
 conv2d_174 (Conv2D)         (None, 24, 24, 32)        14432     
                                                                 
 dropout_129 (Dropout)       (None, 24, 24, 32)        0         
                                                                 
 max_pooling2d_174 (MaxPool  (None, 12, 12, 32)        0         
 ing2D)                                                          
                                                                 
 batch_normalization_174 (B  (None, 12, 12, 32)        128       
 atchNormalization)                                              
                                                                 
 conv2d_175 (Conv2D)         (None, 10, 10, 25)        7225      
                                                                 
 dropout_130 (Dropout)       (None, 10, 10, 25)        0         
                                                                 
 max_pooling2d_175 (MaxPool  (None, 5, 5, 25)          0         
 ing2D)                                                          
                                                                 
 batch_normalization_175 (B  (None, 5, 5, 25)          100       
 atchNormalization)                                              
                                                                 
 flatten_43 (Flatten)        (None, 625)               0         
                                                                 
 dense_86 (Dense)            (None, 64)                40064     
                                                                 
 dropout_131 (Dropout)       (None, 64)                0         
                                                                 
 dense_87 (Dense)            (None, 3)                 195       
                                                                 
=================================================================
Total params: 86494 (337.87 KB)
Trainable params: 86180 (336.64 KB)
Non-trainable params: 314 (1.23 KB)
_________________________________________________________________
None
Epoch 1/20
33/33 [==============================] - 7s 72ms/step - loss: 1.3696 - categorical_accuracy: 0.3219 - val_loss: 1.2525 - val_categorical_accuracy: 0.0022
…
33/33 [==============================] - 2s 47ms/step - loss: 1.0368 - categorical_accuracy: 0.3900 - val_loss: 1.1873 - val_categorical_accuracy: 0.0011
29/29 [==============================] - 0s 7ms/step - loss: 1.1873 - categorical_accuracy: 0.0011
eval [1.1872920989990234, 0.0011111111380159855]
29/29 [==============================] - 0s 7ms/step - loss: 1.1873 - categorical_accuracy: 0.0011
50 4
Model: "sequential_44"
_________________________________________________________________
 Layer (type)                Output Shape              Param #   
=================================================================
 conv2d_176 (Conv2D)         (None, 109, 109, 50)      2450      
                                                                 
 max_pooling2d_176 (MaxPool  (None, 54, 54, 50)        0         
 ing2D)                                                          
                                                                 
 batch_normalization_176 (B  (None, 54, 54, 50)        200       
 atchNormalization)                                              
                                                                 
 conv2d_177 (Conv2D)         (None, 52, 52, 50)        22550     
                                                                 
 max_pooling2d_177 (MaxPool  (None, 26, 26, 50)        0         
 ing2D)                                                          
                                                                 
 batch_normalization_177 (B  (None, 26, 26, 50)        200       
 atchNormalization)                                              
                                                                 
 conv2d_178 (Conv2D)         (None, 24, 24, 32)        14432     
                                                                 
 dropout_132 (Dropout)       (None, 24, 24, 32)        0         
                                                                 
 max_pooling2d_178 (MaxPool  (None, 12, 12, 32)        0         
 ing2D)                                                          
                                                                 
 batch_normalization_178 (B  (None, 12, 12, 32)        128       
 atchNormalization)                                              
                                                                 
 conv2d_179 (Conv2D)         (None, 10, 10, 25)        7225      
                                                                 
 dropout_133 (Dropout)       (None, 10, 10, 25)        0         
                                                                 
 max_pooling2d_179 (MaxPool  (None, 5, 5, 25)          0         
 ing2D)                                                          
                                                                 
 batch_normalization_179 (B  (None, 5, 5, 25)          100       
 atchNormalization)                                              
                                                                 
 flatten_44 (Flatten)        (None, 625)               0         
                                                                 
 dense_88 (Dense)            (None, 64)                40064     
                                                                 
 dropout_134 (Dropout)       (None, 64)                0         
                                                                 
 dense_89 (Dense)            (None, 3)                 195       
                                                                 
=================================================================
Total params: 87544 (341.97 KB)
Trainable params: 87230 (340.74 KB)
Non-trainable params: 314 (1.23 KB)
_________________________________________________________________
None
Epoch 1/20
33/33 [==============================] - 6s 79ms/step - loss: 1.4388 - categorical_accuracy: 0.3005 - val_loss: 4.1626 - val_categorical_accuracy: 0.0000e+00
…
33/33 [==============================] - 1s 45ms/step - loss: 1.0612 - categorical_accuracy: 0.2943 - val_loss: 1.1206 - val_categorical_accuracy: 0.0256
29/29 [==============================] - 0s 6ms/step - loss: 1.1206 - categorical_accuracy: 0.0256
eval [1.12061607837677, 0.025555554777383804]
29/29 [==============================] - 0s 6ms/step - loss: 1.1206 - categorical_accuracy: 0.0256
50 5
Model: "sequential_45"
_________________________________________________________________
 Layer (type)                Output Shape              Param #   
=================================================================
 conv2d_180 (Conv2D)         (None, 108, 108, 50)      3800      
                                                                 
 max_pooling2d_180 (MaxPool  (None, 54, 54, 50)        0         
 ing2D)                                                          
                                                                 
 batch_normalization_180 (B  (None, 54, 54, 50)        200       
 atchNormalization)                                              
                                                                 
 conv2d_181 (Conv2D)         (None, 52, 52, 50)        22550     
                                                                 
 max_pooling2d_181 (MaxPool  (None, 26, 26, 50)        0         
 ing2D)                                                          
                                                                 
 batch_normalization_181 (B  (None, 26, 26, 50)        200       
 atchNormalization)                                              
                                                                 
 conv2d_182 (Conv2D)         (None, 24, 24, 32)        14432     
                                                                 
 dropout_135 (Dropout)       (None, 24, 24, 32)        0         
                                                                 
 max_pooling2d_182 (MaxPool  (None, 12, 12, 32)        0         
 ing2D)                                                          
                                                                 
 batch_normalization_182 (B  (None, 12, 12, 32)        128       
 atchNormalization)                                              
                                                                 
 conv2d_183 (Conv2D)         (None, 10, 10, 25)        7225      
                                                                 
 dropout_136 (Dropout)       (None, 10, 10, 25)        0         
                                                                 
 max_pooling2d_183 (MaxPool  (None, 5, 5, 25)          0         
 ing2D)                                                          
                                                                 
 batch_normalization_183 (B  (None, 5, 5, 25)          100       
 atchNormalization)                                              
                                                                 
 flatten_45 (Flatten)        (None, 625)               0         
                                                                 
 dense_90 (Dense)            (None, 64)                40064     
                                                                 
 dropout_137 (Dropout)       (None, 64)                0         
                                                                 
 dense_91 (Dense)            (None, 3)                 195       
                                                                 
=================================================================
Total params: 88894 (347.24 KB)
Trainable params: 88580 (346.02 KB)
Non-trainable params: 314 (1.23 KB)
_________________________________________________________________
None
Epoch 1/20
33/33 [==============================] - 9s 72ms/step - loss: 1.3767 - categorical_accuracy: 0.3062 - val_loss: 1.7518 - val_categorical_accuracy: 0.9167
…
33/33 [==============================] - 2s 46ms/step - loss: 1.0538 - categorical_accuracy: 0.4090 - val_loss: 1.2387 - val_categorical_accuracy: 0.0144
29/29 [==============================] - 0s 7ms/step - loss: 1.2387 - categorical_accuracy: 0.0144
eval [1.238742709159851, 0.014444444328546524]
29/29 [==============================] - 0s 7ms/step - loss: 1.2387 - categorical_accuracy: 0.0144
50 6
Model: "sequential_46"
_________________________________________________________________
 Layer (type)                Output Shape              Param #   
=================================================================
 conv2d_184 (Conv2D)         (None, 107, 107, 50)      5450      
                                                                 
 max_pooling2d_184 (MaxPool  (None, 53, 53, 50)        0         
 ing2D)                                                          
                                                                 
 batch_normalization_184 (B  (None, 53, 53, 50)        200       
 atchNormalization)                                              
                                                                 
 conv2d_185 (Conv2D)         (None, 51, 51, 50)        22550     
                                                                 
 max_pooling2d_185 (MaxPool  (None, 25, 25, 50)        0         
 ing2D)                                                          
                                                                 
 batch_normalization_185 (B  (None, 25, 25, 50)        200       
 atchNormalization)                                              
                                                                 
 conv2d_186 (Conv2D)         (None, 23, 23, 32)        14432     
                                                                 
 dropout_138 (Dropout)       (None, 23, 23, 32)        0         
                                                                 
 max_pooling2d_186 (MaxPool  (None, 11, 11, 32)        0         
 ing2D)                                                          
                                                                 
 batch_normalization_186 (B  (None, 11, 11, 32)        128       
 atchNormalization)                                              
                                                                 
 conv2d_187 (Conv2D)         (None, 9, 9, 25)          7225      
                                                                 
 dropout_139 (Dropout)       (None, 9, 9, 25)          0         
                                                                 
 max_pooling2d_187 (MaxPool  (None, 4, 4, 25)          0         
 ing2D)                                                          
                                                                 
 batch_normalization_187 (B  (None, 4, 4, 25)          100       
 atchNormalization)                                              
                                                                 
 flatten_46 (Flatten)        (None, 400)               0         
                                                                 
 dense_92 (Dense)            (None, 64)                25664     
                                                                 
 dropout_140 (Dropout)       (None, 64)                0         
                                                                 
 dense_93 (Dense)            (None, 3)                 195       
                                                                 
=================================================================
Total params: 76144 (297.44 KB)
Trainable params: 75830 (296.21 KB)
Non-trainable params: 314 (1.23 KB)
_________________________________________________________________
None
Epoch 1/20
33/33 [==============================] - 7s 80ms/step - loss: 1.3958 - categorical_accuracy: 0.3048 - val_loss: 2.2074 - val_categorical_accuracy: 0.0122
…
33/33 [==============================] - 1s 45ms/step - loss: 1.0640 - categorical_accuracy: 0.3629 - val_loss: 1.1353 - val_categorical_accuracy: 0.0256
29/29 [==============================] - 1s 7ms/step - loss: 1.1353 - categorical_accuracy: 0.0256
eval [1.135346531867981, 0.025555554777383804]
29/29 [==============================] - 0s 7ms/step - loss: 1.1353 - categorical_accuracy: 0.0256
50 7
Model: "sequential_47"
_________________________________________________________________
 Layer (type)                Output Shape              Param #   
=================================================================
 conv2d_188 (Conv2D)         (None, 106, 106, 50)      7400      
                                                                 
 max_pooling2d_188 (MaxPool  (None, 53, 53, 50)        0         
 ing2D)                                                          
                                                                 
 batch_normalization_188 (B  (None, 53, 53, 50)        200       
 atchNormalization)                                              
                                                                 
 conv2d_189 (Conv2D)         (None, 51, 51, 50)        22550     
                                                                 
 max_pooling2d_189 (MaxPool  (None, 25, 25, 50)        0         
 ing2D)                                                          
                                                                 
 batch_normalization_189 (B  (None, 25, 25, 50)        200       
 atchNormalization)                                              
                                                                 
 conv2d_190 (Conv2D)         (None, 23, 23, 32)        14432     
                                                                 
 dropout_141 (Dropout)       (None, 23, 23, 32)        0         
                                                                 
 max_pooling2d_190 (MaxPool  (None, 11, 11, 32)        0         
 ing2D)                                                          
                                                                 
 batch_normalization_190 (B  (None, 11, 11, 32)        128       
 atchNormalization)                                              
                                                                 
 conv2d_191 (Conv2D)         (None, 9, 9, 25)          7225      
                                                                 
 dropout_142 (Dropout)       (None, 9, 9, 25)          0         
                                                                 
 max_pooling2d_191 (MaxPool  (None, 4, 4, 25)          0         
 ing2D)                                                          
                                                                 
 batch_normalization_191 (B  (None, 4, 4, 25)          100       
 atchNormalization)                                              
                                                                 
 flatten_47 (Flatten)        (None, 400)               0         
                                                                 
 dense_94 (Dense)            (None, 64)                25664     
                                                                 
 dropout_143 (Dropout)       (None, 64)                0         
                                                                 
 dense_95 (Dense)            (None, 3)                 195       
                                                                 
=================================================================
Total params: 78094 (305.05 KB)
Trainable params: 77780 (303.83 KB)
Non-trainable params: 314 (1.23 KB)
_________________________________________________________________
None
Epoch 1/20
33/33 [==============================] - 7s 75ms/step - loss: 1.5007 - categorical_accuracy: 0.3757 - val_loss: 1.2959 - val_categorical_accuracy: 0.9689
…
33/33 [==============================] - 2s 51ms/step - loss: 1.0623 - categorical_accuracy: 0.3552 - val_loss: 1.1101 - val_categorical_accuracy: 0.1067
29/29 [==============================] - 0s 7ms/step - loss: 1.1101 - categorical_accuracy: 0.1067
eval [1.1101301908493042, 0.1066666692495346]
29/29 [==============================] - 0s 8ms/step - loss: 1.1101 - categorical_accuracy: 0.1067
50 8
Model: "sequential_48"
_________________________________________________________________
 Layer (type)                Output Shape              Param #   
=================================================================
 conv2d_192 (Conv2D)         (None, 105, 105, 50)      9650      
                                                                 
 max_pooling2d_192 (MaxPool  (None, 52, 52, 50)        0         
 ing2D)                                                          
                                                                 
 batch_normalization_192 (B  (None, 52, 52, 50)        200       
 atchNormalization)                                              
                                                                 
 conv2d_193 (Conv2D)         (None, 50, 50, 50)        22550     
                                                                 
 max_pooling2d_193 (MaxPool  (None, 25, 25, 50)        0         
 ing2D)                                                          
                                                                 
 batch_normalization_193 (B  (None, 25, 25, 50)        200       
 atchNormalization)                                              
                                                                 
 conv2d_194 (Conv2D)         (None, 23, 23, 32)        14432     
                                                                 
 dropout_144 (Dropout)       (None, 23, 23, 32)        0         
                                                                 
 max_pooling2d_194 (MaxPool  (None, 11, 11, 32)        0         
 ing2D)                                                          
                                                                 
 batch_normalization_194 (B  (None, 11, 11, 32)        128       
 atchNormalization)                                              
                                                                 
 conv2d_195 (Conv2D)         (None, 9, 9, 25)          7225      
                                                                 
 dropout_145 (Dropout)       (None, 9, 9, 25)          0         
                                                                 
 max_pooling2d_195 (MaxPool  (None, 4, 4, 25)          0         
 ing2D)                                                          
                                                                 
 batch_normalization_195 (B  (None, 4, 4, 25)          100       
 atchNormalization)                                              
                                                                 
 flatten_48 (Flatten)        (None, 400)               0         
                                                                 
 dense_96 (Dense)            (None, 64)                25664     
                                                                 
 dropout_146 (Dropout)       (None, 64)                0         
                                                                 
 dense_97 (Dense)            (None, 3)                 195       
                                                                 
=================================================================
Total params: 80344 (313.84 KB)
Trainable params: 80030 (312.62 KB)
Non-trainable params: 314 (1.23 KB)
_________________________________________________________________
None
Epoch 1/20
33/33 [==============================] - 7s 86ms/step - loss: 1.5491 - categorical_accuracy: 0.3300 - val_loss: 5.4952 - val_categorical_accuracy: 0.0000e+00
…
33/33 [==============================] - 2s 46ms/step - loss: 1.0718 - categorical_accuracy: 0.2867 - val_loss: 1.1056 - val_categorical_accuracy: 0.0156
29/29 [==============================] - 0s 8ms/step - loss: 1.1056 - categorical_accuracy: 0.0156
eval [1.1056400537490845, 0.015555555932223797]
29/29 [==============================] - 0s 7ms/step - loss: 1.1056 - categorical_accuracy: 0.0156
50 9
Model: "sequential_49"
_________________________________________________________________
 Layer (type)                Output Shape              Param #   
=================================================================
 conv2d_196 (Conv2D)         (None, 104, 104, 50)      12200     
                                                                 
 max_pooling2d_196 (MaxPool  (None, 52, 52, 50)        0         
 ing2D)                                                          
                                                                 
 batch_normalization_196 (B  (None, 52, 52, 50)        200       
 atchNormalization)                                              
                                                                 
 conv2d_197 (Conv2D)         (None, 50, 50, 50)        22550     
                                                                 
 max_pooling2d_197 (MaxPool  (None, 25, 25, 50)        0         
 ing2D)                                                          
                                                                 
 batch_normalization_197 (B  (None, 25, 25, 50)        200       
 atchNormalization)                                              
                                                                 
 conv2d_198 (Conv2D)         (None, 23, 23, 32)        14432     
                                                                 
 dropout_147 (Dropout)       (None, 23, 23, 32)        0         
                                                                 
 max_pooling2d_198 (MaxPool  (None, 11, 11, 32)        0         
 ing2D)                                                          
                                                                 
 batch_normalization_198 (B  (None, 11, 11, 32)        128       
 atchNormalization)                                              
                                                                 
 conv2d_199 (Conv2D)         (None, 9, 9, 25)          7225      
                                                                 
 dropout_148 (Dropout)       (None, 9, 9, 25)          0         
                                                                 
 max_pooling2d_199 (MaxPool  (None, 4, 4, 25)          0         
 ing2D)                                                          
                                                                 
 batch_normalization_199 (B  (None, 4, 4, 25)          100       
 atchNormalization)                                              
                                                                 
 flatten_49 (Flatten)        (None, 400)               0         
                                                                 
 dense_98 (Dense)            (None, 64)                25664     
                                                                 
 dropout_149 (Dropout)       (None, 64)                0         
                                                                 
 dense_99 (Dense)            (None, 3)                 195       
                                                                 
=================================================================
Total params: 82894 (323.80 KB)
Trainable params: 82580 (322.58 KB)
Non-trainable params: 314 (1.23 KB)
_________________________________________________________________
None
Epoch 1/20
33/33 [==============================] - 7s 76ms/step - loss: 1.5304 - categorical_accuracy: 0.2948 - val_loss: 3.0924 - val_categorical_accuracy: 0.0000e+00
…
33/33 [==============================] - 2s 52ms/step - loss: 1.0759 - categorical_accuracy: 0.3971 - val_loss: 1.1013 - val_categorical_accuracy: 0.0244
29/29 [==============================] - 0s 7ms/step - loss: 1.1013 - categorical_accuracy: 0.0244
eval [1.1013232469558716, 0.024444444105029106]
29/29 [==============================] - 0s 8ms/step - loss: 1.1013 - categorical_accuracy: 0.0244
60 2
Model: "sequential_50"
_________________________________________________________________
 Layer (type)                Output Shape              Param #   
=================================================================
 conv2d_200 (Conv2D)         (None, 111, 111, 60)      780       
                                                                 
 max_pooling2d_200 (MaxPool  (None, 55, 55, 60)        0         
 ing2D)                                                          
                                                                 
 batch_normalization_200 (B  (None, 55, 55, 60)        240       
 atchNormalization)                                              
                                                                 
 conv2d_201 (Conv2D)         (None, 53, 53, 60)        32460     
                                                                 
 max_pooling2d_201 (MaxPool  (None, 26, 26, 60)        0         
 ing2D)                                                          
                                                                 
 batch_normalization_201 (B  (None, 26, 26, 60)        240       
 atchNormalization)                                              
                                                                 
 conv2d_202 (Conv2D)         (None, 24, 24, 32)        17312     
                                                                 
 dropout_150 (Dropout)       (None, 24, 24, 32)        0         
                                                                 
 max_pooling2d_202 (MaxPool  (None, 12, 12, 32)        0         
 ing2D)                                                          
                                                                 
 batch_normalization_202 (B  (None, 12, 12, 32)        128       
 atchNormalization)                                              
                                                                 
 conv2d_203 (Conv2D)         (None, 10, 10, 30)        8670      
                                                                 
 dropout_151 (Dropout)       (None, 10, 10, 30)        0         
                                                                 
 max_pooling2d_203 (MaxPool  (None, 5, 5, 30)          0         
 ing2D)                                                          
                                                                 
 batch_normalization_203 (B  (None, 5, 5, 30)          120       
 atchNormalization)                                              
                                                                 
 flatten_50 (Flatten)        (None, 750)               0         
                                                                 
 dense_100 (Dense)           (None, 64)                48064     
                                                                 
 dropout_152 (Dropout)       (None, 64)                0         
                                                                 
 dense_101 (Dense)           (None, 3)                 195       
                                                                 
=================================================================
Total params: 108209 (422.69 KB)
Trainable params: 107845 (421.27 KB)
Non-trainable params: 364 (1.42 KB)
_________________________________________________________________
None
Epoch 1/20
33/33 [==============================] - 7s 90ms/step - loss: 1.4392 - categorical_accuracy: 0.3443 - val_loss: 2.9029 - val_categorical_accuracy: 0.0200
…
33/33 [==============================] - 2s 51ms/step - loss: 1.0345 - categorical_accuracy: 0.3529 - val_loss: 1.1047 - val_categorical_accuracy: 0.0000e+00
29/29 [==============================] - 0s 7ms/step - loss: 1.1047 - categorical_accuracy: 0.0000e+00
eval [1.1046918630599976, 0.0]
29/29 [==============================] - 0s 7ms/step - loss: 1.1047 - categorical_accuracy: 0.0000e+00
60 3
Model: "sequential_51"
_________________________________________________________________
 Layer (type)                Output Shape              Param #   
=================================================================
 conv2d_204 (Conv2D)         (None, 110, 110, 60)      1680      
                                                                 
 max_pooling2d_204 (MaxPool  (None, 55, 55, 60)        0         
 ing2D)                                                          
                                                                 
 batch_normalization_204 (B  (None, 55, 55, 60)        240       
 atchNormalization)                                              
                                                                 
 conv2d_205 (Conv2D)         (None, 53, 53, 60)        32460     
                                                                 
 max_pooling2d_205 (MaxPool  (None, 26, 26, 60)        0         
 ing2D)                                                          
                                                                 
 batch_normalization_205 (B  (None, 26, 26, 60)        240       
 atchNormalization)                                              
                                                                 
 conv2d_206 (Conv2D)         (None, 24, 24, 32)        17312     
                                                                 
 dropout_153 (Dropout)       (None, 24, 24, 32)        0         
                                                                 
 max_pooling2d_206 (MaxPool  (None, 12, 12, 32)        0         
 ing2D)                                                          
                                                                 
 batch_normalization_206 (B  (None, 12, 12, 32)        128       
 atchNormalization)                                              
                                                                 
 conv2d_207 (Conv2D)         (None, 10, 10, 30)        8670      
                                                                 
 dropout_154 (Dropout)       (None, 10, 10, 30)        0         
                                                                 
 max_pooling2d_207 (MaxPool  (None, 5, 5, 30)          0         
 ing2D)                                                          
                                                                 
 batch_normalization_207 (B  (None, 5, 5, 30)          120       
 atchNormalization)                                              
                                                                 
 flatten_51 (Flatten)        (None, 750)               0         
                                                                 
 dense_102 (Dense)           (None, 64)                48064     
                                                                 
 dropout_155 (Dropout)       (None, 64)                0         
                                                                 
 dense_103 (Dense)           (None, 3)                 195       
                                                                 
=================================================================
Total params: 109109 (426.21 KB)
Trainable params: 108745 (424.79 KB)
Non-trainable params: 364 (1.42 KB)
_________________________________________________________________
None
Epoch 1/20
33/33 [==============================] - 6s 84ms/step - loss: 1.4025 - categorical_accuracy: 0.3248 - val_loss: 1.6310 - val_categorical_accuracy: 0.0044
…
33/33 [==============================] - 2s 55ms/step - loss: 1.0542 - categorical_accuracy: 0.3981 - val_loss: 1.1408 - val_categorical_accuracy: 0.0000e+00
29/29 [==============================] - 0s 6ms/step - loss: 1.1408 - categorical_accuracy: 0.0000e+00
eval [1.140814185142517, 0.0]
29/29 [==============================] - 0s 7ms/step - loss: 1.1408 - categorical_accuracy: 0.0000e+00
60 4
Model: "sequential_52"
_________________________________________________________________
 Layer (type)                Output Shape              Param #   
=================================================================
 conv2d_208 (Conv2D)         (None, 109, 109, 60)      2940      
                                                                 
 max_pooling2d_208 (MaxPool  (None, 54, 54, 60)        0         
 ing2D)                                                          
                                                                 
 batch_normalization_208 (B  (None, 54, 54, 60)        240       
 atchNormalization)                                              
                                                                 
 conv2d_209 (Conv2D)         (None, 52, 52, 60)        32460     
                                                                 
 max_pooling2d_209 (MaxPool  (None, 26, 26, 60)        0         
 ing2D)                                                          
                                                                 
 batch_normalization_209 (B  (None, 26, 26, 60)        240       
 atchNormalization)                                              
                                                                 
 conv2d_210 (Conv2D)         (None, 24, 24, 32)        17312     
                                                                 
 dropout_156 (Dropout)       (None, 24, 24, 32)        0         
                                                                 
 max_pooling2d_210 (MaxPool  (None, 12, 12, 32)        0         
 ing2D)                                                          
                                                                 
 batch_normalization_210 (B  (None, 12, 12, 32)        128       
 atchNormalization)                                              
                                                                 
 conv2d_211 (Conv2D)         (None, 10, 10, 30)        8670      
                                                                 
 dropout_157 (Dropout)       (None, 10, 10, 30)        0         
                                                                 
 max_pooling2d_211 (MaxPool  (None, 5, 5, 30)          0         
 ing2D)                                                          
                                                                 
 batch_normalization_211 (B  (None, 5, 5, 30)          120       
 atchNormalization)                                              
                                                                 
 flatten_52 (Flatten)        (None, 750)               0         
                                                                 
 dense_104 (Dense)           (None, 64)                48064     
                                                                 
 dropout_158 (Dropout)       (None, 64)                0         
                                                                 
 dense_105 (Dense)           (None, 3)                 195       
                                                                 
=================================================================
Total params: 110369 (431.13 KB)
Trainable params: 110005 (429.71 KB)
Non-trainable params: 364 (1.42 KB)
_________________________________________________________________
None
Epoch 1/20
33/33 [==============================] - 8s 81ms/step - loss: 1.3664 - categorical_accuracy: 0.3205 - val_loss: 3.3016 - val_categorical_accuracy: 0.0000e+00
…
33/33 [==============================] - 2s 48ms/step - loss: 1.0552 - categorical_accuracy: 0.3048 - val_loss: 1.1073 - val_categorical_accuracy: 0.0011
29/29 [==============================] - 0s 6ms/step - loss: 1.1073 - categorical_accuracy: 0.0011
eval [1.1073068380355835, 0.0011111111380159855]
29/29 [==============================] - 0s 6ms/step - loss: 1.1073 - categorical_accuracy: 0.0011
60 5
Model: "sequential_53"
_________________________________________________________________
 Layer (type)                Output Shape              Param #   
=================================================================
 conv2d_212 (Conv2D)         (None, 108, 108, 60)      4560      
                                                                 
 max_pooling2d_212 (MaxPool  (None, 54, 54, 60)        0         
 ing2D)                                                          
                                                                 
 batch_normalization_212 (B  (None, 54, 54, 60)        240       
 atchNormalization)                                              
                                                                 
 conv2d_213 (Conv2D)         (None, 52, 52, 60)        32460     
                                                                 
 max_pooling2d_213 (MaxPool  (None, 26, 26, 60)        0         
 ing2D)                                                          
                                                                 
 batch_normalization_213 (B  (None, 26, 26, 60)        240       
 atchNormalization)                                              
                                                                 
 conv2d_214 (Conv2D)         (None, 24, 24, 32)        17312     
                                                                 
 dropout_159 (Dropout)       (None, 24, 24, 32)        0         
                                                                 
 max_pooling2d_214 (MaxPool  (None, 12, 12, 32)        0         
 ing2D)                                                          
                                                                 
 batch_normalization_214 (B  (None, 12, 12, 32)        128       
 atchNormalization)                                              
                                                                 
 conv2d_215 (Conv2D)         (None, 10, 10, 30)        8670      
                                                                 
 dropout_160 (Dropout)       (None, 10, 10, 30)        0         
                                                                 
 max_pooling2d_215 (MaxPool  (None, 5, 5, 30)          0         
 ing2D)                                                          
                                                                 
 batch_normalization_215 (B  (None, 5, 5, 30)          120       
 atchNormalization)                                              
                                                                 
 flatten_53 (Flatten)        (None, 750)               0         
                                                                 
 dense_106 (Dense)           (None, 64)                48064     
                                                                 
 dropout_161 (Dropout)       (None, 64)                0         
                                                                 
 dense_107 (Dense)           (None, 3)                 195       
                                                                 
=================================================================
Total params: 111989 (437.46 KB)
Trainable params: 111625 (436.04 KB)
Non-trainable params: 364 (1.42 KB)
_________________________________________________________________
None
Epoch 1/20
33/33 [==============================] - 7s 84ms/step - loss: 1.3669 - categorical_accuracy: 0.3033 - val_loss: 4.2930 - val_categorical_accuracy: 0.0044
…
33/33 [==============================] - 2s 55ms/step - loss: 1.0656 - categorical_accuracy: 0.2386 - val_loss: 1.1087 - val_categorical_accuracy: 0.0022
29/29 [==============================] - 0s 6ms/step - loss: 1.1087 - categorical_accuracy: 0.0022
…
                                                                 
 max_pooling2d_217 (MaxPool  (None, 25, 25, 60)        0         
 ing2D)                                                          
                                                                 
 batch_normalization_217 (B  (None, 25, 25, 60)        240       
 atchNormalization)                                              
                                                                 
 conv2d_218 (Conv2D)         (None, 23, 23, 32)        17312     
                                                                 
 dropout_162 (Dropout)       (None, 23, 23, 32)        0         
                                                                 
 max_pooling2d_218 (MaxPool  (None, 11, 11, 32)        0         
 ing2D)                                                          
                                                                 
 batch_normalization_218 (B  (None, 11, 11, 32)        128       
 atchNormalization)                                              
                                                                 
 conv2d_219 (Conv2D)         (None, 9, 9, 30)          8670      
                                                                 
 dropout_163 (Dropout)       (None, 9, 9, 30)          0         
                                                                 
 max_pooling2d_219 (MaxPool  (None, 4, 4, 30)          0         
 ing2D)                                                          
                                                                 
 batch_normalization_219 (B  (None, 4, 4, 30)          120       
 atchNormalization)                                              
                                                                 
 flatten_54 (Flatten)        (None, 480)               0         
                                                                 
 dense_108 (Dense)           (None, 64)                30784     
                                                                 
 dropout_164 (Dropout)       (None, 64)                0         
                                                                 
 dense_109 (Dense)           (None, 3)                 195       
                                                                 
=================================================================
Total params: 96689 (377.69 KB)
Trainable params: 96325 (376.27 KB)
Non-trainable params: 364 (1.42 KB)
_________________________________________________________________
None
Epoch 1/20
33/33 [==============================] - 8s 113ms/step - loss: 1.3638 - categorical_accuracy: 0.3524 - val_loss: 1.3164 - val_categorical_accuracy: 0.8311
…
33/33 [==============================] - 2s 53ms/step - loss: 1.0670 - categorical_accuracy: 0.3114 - val_loss: 1.1003 - val_categorical_accuracy: 0.5444
29/29 [==============================] - 0s 6ms/step - loss: 1.1003 - categorical_accuracy: 0.5444
eval [1.1003446578979492, 0.5444444417953491]
29/29 [==============================] - 0s 7ms/step - loss: 1.1003 - categorical_accuracy: 0.5444
60 7
Model: "sequential_55"
_________________________________________________________________
 Layer (type)                Output Shape              Param #   
=================================================================
 conv2d_220 (Conv2D)         (None, 106, 106, 60)      8880      
                                                                 
 max_pooling2d_220 (MaxPool  (None, 53, 53, 60)        0         
 ing2D)                                                          
                                                                 
 batch_normalization_220 (B  (None, 53, 53, 60)        240       
 atchNormalization)                                              
                                                                 
 conv2d_221 (Conv2D)         (None, 51, 51, 60)        32460     
                                                                 
 max_pooling2d_221 (MaxPool  (None, 25, 25, 60)        0         
 ing2D)                                                          
                                                                 
 batch_normalization_221 (B  (None, 25, 25, 60)        240       
 atchNormalization)                                              
                                                                 
 conv2d_222 (Conv2D)         (None, 23, 23, 32)        17312     
                                                                 
 dropout_165 (Dropout)       (None, 23, 23, 32)        0         
                                                                 
 max_pooling2d_222 (MaxPool  (None, 11, 11, 32)        0         
 ing2D)                                                          
                                                                 
 batch_normalization_222 (B  (None, 11, 11, 32)        128       
 atchNormalization)                                              
                                                                 
 conv2d_223 (Conv2D)         (None, 9, 9, 30)          8670      
                                                                 
 dropout_166 (Dropout)       (None, 9, 9, 30)          0         
                                                                 
 max_pooling2d_223 (MaxPool  (None, 4, 4, 30)          0         
 ing2D)                                                          
                                                                 
 batch_normalization_223 (B  (None, 4, 4, 30)          120       
 atchNormalization)                                              
                                                                 
 flatten_55 (Flatten)        (None, 480)               0         
                                                                 
 dense_110 (Dense)           (None, 64)                30784     
                                                                 
 dropout_167 (Dropout)       (None, 64)                0         
                                                                 
 dense_111 (Dense)           (None, 3)                 195       
                                                                 
=================================================================
Total params: 99029 (386.83 KB)
Trainable params: 98665 (385.41 KB)
Non-trainable params: 364 (1.42 KB)
_________________________________________________________________
None
Epoch 1/20
33/33 [==============================] - 6s 86ms/step - loss: 1.3980 - categorical_accuracy: 0.3238 - val_loss: 3.5342 - val_categorical_accuracy: 0.0000e+00
…
33/33 [==============================] - 2s 61ms/step - loss: 1.0621 - categorical_accuracy: 0.3105 - val_loss: 1.1902 - val_categorical_accuracy: 0.0000e+00
29/29 [==============================] - 0s 9ms/step - loss: 1.1902 - categorical_accuracy: 0.0000e+00
eval [1.1902492046356201, 0.0]
29/29 [==============================] - 0s 8ms/step - loss: 1.1902 - categorical_accuracy: 0.0000e+00
60 8
Model: "sequential_56"
_________________________________________________________________
 Layer (type)                Output Shape              Param #   
=================================================================
 conv2d_224 (Conv2D)         (None, 105, 105, 60)      11580     
                                                                 
 max_pooling2d_224 (MaxPool  (None, 52, 52, 60)        0         
 ing2D)                                                          
                                                                 
 batch_normalization_224 (B  (None, 52, 52, 60)        240       
 atchNormalization)                                              
                                                                 
 conv2d_225 (Conv2D)         (None, 50, 50, 60)        32460     
                                                                 
 max_pooling2d_225 (MaxPool  (None, 25, 25, 60)        0         
 ing2D)                                                          
                                                                 
 batch_normalization_225 (B  (None, 25, 25, 60)        240       
 atchNormalization)                                              
                                                                 
 conv2d_226 (Conv2D)         (None, 23, 23, 32)        17312     
                                                                 
 dropout_168 (Dropout)       (None, 23, 23, 32)        0         
                                                                 
 max_pooling2d_226 (MaxPool  (None, 11, 11, 32)        0         
 ing2D)                                                          
                                                                 
 batch_normalization_226 (B  (None, 11, 11, 32)        128       
 atchNormalization)                                              
                                                                 
 conv2d_227 (Conv2D)         (None, 9, 9, 30)          8670      
                                                                 
 dropout_169 (Dropout)       (None, 9, 9, 30)          0         
                                                                 
 max_pooling2d_227 (MaxPool  (None, 4, 4, 30)          0         
 ing2D)                                                          
                                                                 
 batch_normalization_227 (B  (None, 4, 4, 30)          120       
 atchNormalization)                                              
                                                                 
 flatten_56 (Flatten)        (None, 480)               0         
                                                                 
 dense_112 (Dense)           (None, 64)                30784     
                                                                 
 dropout_170 (Dropout)       (None, 64)                0         
                                                                 
 dense_113 (Dense)           (None, 3)                 195       
                                                                 
=================================================================
Total params: 101729 (397.38 KB)
Trainable params: 101365 (395.96 KB)
Non-trainable params: 364 (1.42 KB)
_________________________________________________________________
None
Epoch 1/20
33/33 [==============================] - 7s 102ms/step - loss: 1.5243 - categorical_accuracy: 0.3324 - val_loss: 3.0986 - val_categorical_accuracy: 0.0000e+00
…
33/33 [==============================] - 2s 59ms/step - loss: 1.0659 - categorical_accuracy: 0.3524 - val_loss: 1.1222 - val_categorical_accuracy: 0.9811
29/29 [==============================] - 0s 7ms/step - loss: 1.1222 - categorical_accuracy: 0.9811
eval [1.1221917867660522, 0.9811111092567444]
29/29 [==============================] - 0s 9ms/step - loss: 1.1222 - categorical_accuracy: 0.9811
60 9
Model: "sequential_57"
_________________________________________________________________
 Layer (type)                Output Shape              Param #   
=================================================================
 conv2d_228 (Conv2D)         (None, 104, 104, 60)      14640     
                                                                 
 max_pooling2d_228 (MaxPool  (None, 52, 52, 60)        0         
 ing2D)                                                          
                                                                 
 batch_normalization_228 (B  (None, 52, 52, 60)        240       
 atchNormalization)                                              
                                                                 
 conv2d_229 (Conv2D)         (None, 50, 50, 60)        32460     
                                                                 
 max_pooling2d_229 (MaxPool  (None, 25, 25, 60)        0         
 ing2D)                                                          
                                                                 
 batch_normalization_229 (B  (None, 25, 25, 60)        240       
 atchNormalization)                                              
                                                                 
 conv2d_230 (Conv2D)         (None, 23, 23, 32)        17312     
                                                                 
 dropout_171 (Dropout)       (None, 23, 23, 32)        0         
                                                                 
 max_pooling2d_230 (MaxPool  (None, 11, 11, 32)        0         
 ing2D)                                                          
                                                                 
 batch_normalization_230 (B  (None, 11, 11, 32)        128       
 atchNormalization)                                              
                                                                 
 conv2d_231 (Conv2D)         (None, 9, 9, 30)          8670      
                                                                 
 dropout_172 (Dropout)       (None, 9, 9, 30)          0         
                                                                 
 max_pooling2d_231 (MaxPool  (None, 4, 4, 30)          0         
 ing2D)                                                          
                                                                 
 batch_normalization_231 (B  (None, 4, 4, 30)          120       
 atchNormalization)                                              
                                                                 
 flatten_57 (Flatten)        (None, 480)               0         
                                                                 
 dense_114 (Dense)           (None, 64)                30784     
                                                                 
 dropout_173 (Dropout)       (None, 64)                0         
                                                                 
 dense_115 (Dense)           (None, 3)                 195       
                                                                 
=================================================================
Total params: 104789 (409.33 KB)
Trainable params: 104425 (407.91 KB)
Non-trainable params: 364 (1.42 KB)
_________________________________________________________________
None
Epoch 1/20
33/33 [==============================] - 8s 87ms/step - loss: 1.4645 - categorical_accuracy: 0.3019 - val_loss: 5.9200 - val_categorical_accuracy: 0.0000e+00
…
33/33 [==============================] - 2s 62ms/step - loss: 1.0697 - categorical_accuracy: 0.4567 - val_loss: 1.1051 - val_categorical_accuracy: 0.1244
29/29 [==============================] - 0s 9ms/step - loss: 1.1051 - categorical_accuracy: 0.1244
eval [1.1051052808761597, 0.12444444745779037]
29/29 [==============================] - 0s 8ms/step - loss: 1.1051 - categorical_accuracy: 0.1244
70 2
Model: "sequential_58"
_________________________________________________________________
 Layer (type)                Output Shape              Param #   
=================================================================
 conv2d_232 (Conv2D)         (None, 111, 111, 70)      910       
                                                                 
 max_pooling2d_232 (MaxPool  (None, 55, 55, 70)        0         
 ing2D)                                                          
                                                                 
 batch_normalization_232 (B  (None, 55, 55, 70)        280       
 atchNormalization)                                              
                                                                 
 conv2d_233 (Conv2D)         (None, 53, 53, 70)        44170     
                                                                 
 max_pooling2d_233 (MaxPool  (None, 26, 26, 70)        0         
 ing2D)                                                          
                                                                 
 batch_normalization_233 (B  (None, 26, 26, 70)        280       
 atchNormalization)                                              
                                                                 
 conv2d_234 (Conv2D)         (None, 24, 24, 32)        20192     
                                                                 
 dropout_174 (Dropout)       (None, 24, 24, 32)        0         
                                                                 
 max_pooling2d_234 (MaxPool  (None, 12, 12, 32)        0         
 ing2D)                                                          
                                                                 
 batch_normalization_234 (B  (None, 12, 12, 32)        128       
 atchNormalization)                                              
                                                                 
 conv2d_235 (Conv2D)         (None, 10, 10, 35)        10115     
                                                                 
 dropout_175 (Dropout)       (None, 10, 10, 35)        0         
                                                                 
 max_pooling2d_235 (MaxPool  (None, 5, 5, 35)          0         
 ing2D)                                                          
                                                                 
 batch_normalization_235 (B  (None, 5, 5, 35)          140       
 atchNormalization)                                              
                                                                 
 flatten_58 (Flatten)        (None, 875)               0         
                                                                 
 dense_116 (Dense)           (None, 64)                56064     
                                                                 
 dropout_176 (Dropout)       (None, 64)                0         
                                                                 
 dense_117 (Dense)           (None, 3)                 195       
                                                                 
=================================================================
Total params: 132474 (517.48 KB)
Trainable params: 132060 (515.86 KB)
Non-trainable params: 414 (1.62 KB)
_________________________________________________________________
None
Epoch 1/20
33/33 [==============================] - 10s 111ms/step - loss: 1.3689 - categorical_accuracy: 0.3471 - val_loss: 1.5002 - val_categorical_accuracy: 0.0067
…
33/33 [==============================] - 2s 68ms/step - loss: 1.0585 - categorical_accuracy: 0.2286 - val_loss: 1.3645 - val_categorical_accuracy: 0.0011
29/29 [==============================] - 1s 8ms/step - loss: 1.3645 - categorical_accuracy: 0.0011
eval [1.364545464515686, 0.0011111111380159855]
29/29 [==============================] - 0s 8ms/step - loss: 1.3645 - categorical_accuracy: 0.0011
70 3
Model: "sequential_59"
_________________________________________________________________
 Layer (type)                Output Shape              Param #   
=================================================================
 conv2d_236 (Conv2D)         (None, 110, 110, 70)      1960      
                                                                 
 max_pooling2d_236 (MaxPool  (None, 55, 55, 70)        0         
 ing2D)                                                          
                                                                 
 batch_normalization_236 (B  (None, 55, 55, 70)        280       
 atchNormalization)                                              
                                                                 
 conv2d_237 (Conv2D)         (None, 53, 53, 70)        44170     
                                                                 
 max_pooling2d_237 (MaxPool  (None, 26, 26, 70)        0         
 ing2D)                                                          
                                                                 
 batch_normalization_237 (B  (None, 26, 26, 70)        280       
 atchNormalization)                                              
                                                                 
 conv2d_238 (Conv2D)         (None, 24, 24, 32)        20192     
                                                                 
 dropout_177 (Dropout)       (None, 24, 24, 32)        0         
                                                                 
 max_pooling2d_238 (MaxPool  (None, 12, 12, 32)        0         
 ing2D)                                                          
                                                                 
 batch_normalization_238 (B  (None, 12, 12, 32)        128       
 atchNormalization)                                              
                                                                 
 conv2d_239 (Conv2D)         (None, 10, 10, 35)        10115     
                                                                 
 dropout_178 (Dropout)       (None, 10, 10, 35)        0         
                                                                 
 max_pooling2d_239 (MaxPool  (None, 5, 5, 35)          0         
 ing2D)                                                          
                                                                 
 batch_normalization_239 (B  (None, 5, 5, 35)          140       
 atchNormalization)                                              
                                                                 
 flatten_59 (Flatten)        (None, 875)               0         
                                                                 
 dense_118 (Dense)           (None, 64)                56064     
                                                                 
 dropout_179 (Dropout)       (None, 64)                0         
                                                                 
 dense_119 (Dense)           (None, 3)                 195       
                                                                 
=================================================================
Total params: 133524 (521.58 KB)
Trainable params: 133110 (519.96 KB)
Non-trainable params: 414 (1.62 KB)
_________________________________________________________________
None
Epoch 1/20
33/33 [==============================] - 6s 97ms/step - loss: 1.3857 - categorical_accuracy: 0.3310 - val_loss: 4.3178 - val_categorical_accuracy: 0.0000e+00
…
33/33 [==============================] - 2s 69ms/step - loss: 1.0347 - categorical_accuracy: 0.2795 - val_loss: 1.3176 - val_categorical_accuracy: 0.0044
29/29 [==============================] - 0s 9ms/step - loss: 1.3176 - categorical_accuracy: 0.0044
eval [1.3175671100616455, 0.004444444552063942]
29/29 [==============================] - 0s 8ms/step - loss: 1.3176 - categorical_accuracy: 0.0044
70 4
Model: "sequential_60"
_________________________________________________________________
 Layer (type)                Output Shape              Param #   
=================================================================
 conv2d_240 (Conv2D)         (None, 109, 109, 70)      3430      
                                                                 
 max_pooling2d_240 (MaxPool  (None, 54, 54, 70)        0         
 ing2D)                                                          
                                                                 
 batch_normalization_240 (B  (None, 54, 54, 70)        280       
 atchNormalization)                                              
                                                                 
 conv2d_241 (Conv2D)         (None, 52, 52, 70)        44170     
                                                                 
 max_pooling2d_241 (MaxPool  (None, 26, 26, 70)        0         
 ing2D)                                                          
                                                                 
 batch_normalization_241 (B  (None, 26, 26, 70)        280       
 atchNormalization)                                              
                                                                 
 conv2d_242 (Conv2D)         (None, 24, 24, 32)        20192     
                                                                 
 dropout_180 (Dropout)       (None, 24, 24, 32)        0         
                                                                 
 max_pooling2d_242 (MaxPool  (None, 12, 12, 32)        0         
 ing2D)                                                          
                                                                 
 batch_normalization_242 (B  (None, 12, 12, 32)        128       
 atchNormalization)                                              
                                                                 
 conv2d_243 (Conv2D)         (None, 10, 10, 35)        10115     
                                                                 
 dropout_181 (Dropout)       (None, 10, 10, 35)        0         
                                                                 
 max_pooling2d_243 (MaxPool  (None, 5, 5, 35)          0         
 ing2D)                                                          
                                                                 
 batch_normalization_243 (B  (None, 5, 5, 35)          140       
 atchNormalization)                                              
                                                                 
 flatten_60 (Flatten)        (None, 875)               0         
                                                                 
 dense_120 (Dense)           (None, 64)                56064     
                                                                 
 dropout_182 (Dropout)       (None, 64)                0         
                                                                 
 dense_121 (Dense)           (None, 3)                 195       
                                                                 
=================================================================
Total params: 134994 (527.32 KB)
Trainable params: 134580 (525.70 KB)
Non-trainable params: 414 (1.62 KB)
_________________________________________________________________
None
Epoch 1/20
33/33 [==============================] - 7s 102ms/step - loss: 1.4141 - categorical_accuracy: 0.3071 - val_loss: 5.7954 - val_categorical_accuracy: 0.0011
…
33/33 [==============================] - 2s 70ms/step - loss: 1.0575 - categorical_accuracy: 0.3705 - val_loss: 1.1136 - val_categorical_accuracy: 0.0011
29/29 [==============================] - 1s 8ms/step - loss: 1.1136 - categorical_accuracy: 0.0011
eval [1.1136279106140137, 0.0011111111380159855]
29/29 [==============================] - 0s 7ms/step - loss: 1.1136 - categorical_accuracy: 0.0011
70 5
Model: "sequential_61"
_________________________________________________________________
 Layer (type)                Output Shape              Param #   
=================================================================
 conv2d_244 (Conv2D)         (None, 108, 108, 70)      5320      
                                                                 
 max_pooling2d_244 (MaxPool  (None, 54, 54, 70)        0         
 ing2D)                                                          
                                                                 
 batch_normalization_244 (B  (None, 54, 54, 70)        280       
 atchNormalization)                                              
                                                                 
 conv2d_245 (Conv2D)         (None, 52, 52, 70)        44170     
                                                                 
 max_pooling2d_245 (MaxPool  (None, 26, 26, 70)        0         
 ing2D)                                                          
                                                                 
 batch_normalization_245 (B  (None, 26, 26, 70)        280       
 atchNormalization)                                              
                                                                 
 conv2d_246 (Conv2D)         (None, 24, 24, 32)        20192     
                                                                 
 dropout_183 (Dropout)       (None, 24, 24, 32)        0         
                                                                 
 max_pooling2d_246 (MaxPool  (None, 12, 12, 32)        0         
 ing2D)                                                          
                                                                 
 batch_normalization_246 (B  (None, 12, 12, 32)        128       
 atchNormalization)                                              
                                                                 
 conv2d_247 (Conv2D)         (None, 10, 10, 35)        10115     
                                                                 
 dropout_184 (Dropout)       (None, 10, 10, 35)        0         
                                                                 
 max_pooling2d_247 (MaxPool  (None, 5, 5, 35)          0         
 ing2D)                                                          
                                                                 
 batch_normalization_247 (B  (None, 5, 5, 35)          140       
 atchNormalization)                                              
                                                                 
 flatten_61 (Flatten)        (None, 875)               0         
                                                                 
 dense_122 (Dense)           (None, 64)                56064     
                                                                 
 dropout_185 (Dropout)       (None, 64)                0         
                                                                 
 dense_123 (Dense)           (None, 3)                 195       
                                                                 
=================================================================
Total params: 136884 (534.70 KB)
Trainable params: 136470 (533.09 KB)
Non-trainable params: 414 (1.62 KB)
_________________________________________________________________
None
Epoch 1/20
33/33 [==============================] - 7s 90ms/step - loss: 1.3192 - categorical_accuracy: 0.3081 - val_loss: 4.1368 - val_categorical_accuracy: 0.0067
…
33/33 [==============================] - 2s 69ms/step - loss: 1.0490 - categorical_accuracy: 0.2767 - val_loss: 1.1019 - val_categorical_accuracy: 0.0622
29/29 [==============================] - 0s 7ms/step - loss: 1.1019 - categorical_accuracy: 0.0622
eval [1.101901888847351, 0.06222222372889519]
29/29 [==============================] - 0s 8ms/step - loss: 1.1019 - categorical_accuracy: 0.0622
70 6
Model: "sequential_62"
_________________________________________________________________
 Layer (type)                Output Shape              Param #   
=================================================================
 conv2d_248 (Conv2D)         (None, 107, 107, 70)      7630      
                                                                 
 max_pooling2d_248 (MaxPool  (None, 53, 53, 70)        0         
 ing2D)                                                          
                                                                 
 batch_normalization_248 (B  (None, 53, 53, 70)        280       
 atchNormalization)                                              
                                                                 
 conv2d_249 (Conv2D)         (None, 51, 51, 70)        44170     
                                                                 
 max_pooling2d_249 (MaxPool  (None, 25, 25, 70)        0         
 ing2D)                                                          
                                                                 
 batch_normalization_249 (B  (None, 25, 25, 70)        280       
 atchNormalization)                                              
                                                                 
 conv2d_250 (Conv2D)         (None, 23, 23, 32)        20192     
                                                                 
 dropout_186 (Dropout)       (None, 23, 23, 32)        0         
                                                                 
 max_pooling2d_250 (MaxPool  (None, 11, 11, 32)        0         
 ing2D)                                                          
                                                                 
 batch_normalization_250 (B  (None, 11, 11, 32)        128       
 atchNormalization)                                              
                                                                 
 conv2d_251 (Conv2D)         (None, 9, 9, 35)          10115     
                                                                 
 dropout_187 (Dropout)       (None, 9, 9, 35)          0         
                                                                 
 max_pooling2d_251 (MaxPool  (None, 4, 4, 35)          0         
 ing2D)                                                          
                                                                 
 batch_normalization_251 (B  (None, 4, 4, 35)          140       
 atchNormalization)                                              
                                                                 
 flatten_62 (Flatten)        (None, 560)               0         
                                                                 
 dense_124 (Dense)           (None, 64)                35904     
                                                                 
 dropout_188 (Dropout)       (None, 64)                0         
                                                                 
 dense_125 (Dense)           (None, 3)                 195       
                                                                 
=================================================================
Total params: 119034 (464.98 KB)
Trainable params: 118620 (463.36 KB)
Non-trainable params: 414 (1.62 KB)
_________________________________________________________________
None
Epoch 1/20
33/33 [==============================] - 10s 131ms/step - loss: 1.4020 - categorical_accuracy: 0.3729 - val_loss: 2.1545 - val_categorical_accuracy: 0.0200
…
33/33 [==============================] - 2s 73ms/step - loss: 1.0584 - categorical_accuracy: 0.4138 - val_loss: 1.0991 - val_categorical_accuracy: 0.4233
29/29 [==============================] - 1s 8ms/step - loss: 1.0991 - categorical_accuracy: 0.4233
eval [1.0991098880767822, 0.4233333468437195]
29/29 [==============================] - 0s 9ms/step - loss: 1.0991 - categorical_accuracy: 0.4233
70 7
Model: "sequential_63"
_________________________________________________________________
 Layer (type)                Output Shape              Param #   
=================================================================
 conv2d_252 (Conv2D)         (None, 106, 106, 70)      10360     
                                                                 
 max_pooling2d_252 (MaxPool  (None, 53, 53, 70)        0         
 ing2D)                                                          
                                                                 
 batch_normalization_252 (B  (None, 53, 53, 70)        280       
 atchNormalization)                                              
                                                                 
 conv2d_253 (Conv2D)         (None, 51, 51, 70)        44170     
                                                                 
 max_pooling2d_253 (MaxPool  (None, 25, 25, 70)        0         
 ing2D)                                                          
                                                                 
 batch_normalization_253 (B  (None, 25, 25, 70)        280       
 atchNormalization)                                              
                                                                 
 conv2d_254 (Conv2D)         (None, 23, 23, 32)        20192     
                                                                 
 dropout_189 (Dropout)       (None, 23, 23, 32)        0         
                                                                 
 max_pooling2d_254 (MaxPool  (None, 11, 11, 32)        0         
 ing2D)                                                          
                                                                 
 batch_normalization_254 (B  (None, 11, 11, 32)        128       
 atchNormalization)                                              
                                                                 
 conv2d_255 (Conv2D)         (None, 9, 9, 35)          10115     
                                                                 
 dropout_190 (Dropout)       (None, 9, 9, 35)          0         
                                                                 
 max_pooling2d_255 (MaxPool  (None, 4, 4, 35)          0         
 ing2D)                                                          
                                                                 
 batch_normalization_255 (B  (None, 4, 4, 35)          140       
 atchNormalization)                                              
                                                                 
 flatten_63 (Flatten)        (None, 560)               0         
                                                                 
 dense_126 (Dense)           (None, 64)                35904     
                                                                 
 dropout_191 (Dropout)       (None, 64)                0         
                                                                 
 dense_127 (Dense)           (None, 3)                 195       
                                                                 
=================================================================
Total params: 121764 (475.64 KB)
Trainable params: 121350 (474.02 KB)
Non-trainable params: 414 (1.62 KB)
_________________________________________________________________
None
Epoch 1/20
33/33 [==============================] - 9s 106ms/step - loss: 1.3715 - categorical_accuracy: 0.3086 - val_loss: 2.7645 - val_categorical_accuracy: 0.9933
…
33/33 [==============================] - 2s 75ms/step - loss: 1.0633 - categorical_accuracy: 0.3857 - val_loss: 1.2047 - val_categorical_accuracy: 0.0111
29/29 [==============================] - 0s 9ms/step - loss: 1.2047 - categorical_accuracy: 0.0111
eval [1.2047194242477417, 0.011111111380159855]
29/29 [==============================] - 0s 9ms/step - loss: 1.2047 - categorical_accuracy: 0.0111
70 8
Model: "sequential_64"
_________________________________________________________________
 Layer (type)                Output Shape              Param #   
=================================================================
 conv2d_256 (Conv2D)         (None, 105, 105, 70)      13510     
                                                                 
 max_pooling2d_256 (MaxPool  (None, 52, 52, 70)        0         
 ing2D)                                                          
                                                                 
 batch_normalization_256 (B  (None, 52, 52, 70)        280       
 atchNormalization)                                              
                                                                 
 conv2d_257 (Conv2D)         (None, 50, 50, 70)        44170     
                                                                 
 max_pooling2d_257 (MaxPool  (None, 25, 25, 70)        0         
 ing2D)                                                          
                                                                 
 batch_normalization_257 (B  (None, 25, 25, 70)        280       
 atchNormalization)                                              
                                                                 
 conv2d_258 (Conv2D)         (None, 23, 23, 32)        20192     
                                                                 
 dropout_192 (Dropout)       (None, 23, 23, 32)        0         
                                                                 
 max_pooling2d_258 (MaxPool  (None, 11, 11, 32)        0         
 ing2D)                                                          
                                                                 
 batch_normalization_258 (B  (None, 11, 11, 32)        128       
 atchNormalization)                                              
                                                                 
 conv2d_259 (Conv2D)         (None, 9, 9, 35)          10115     
                                                                 
 dropout_193 (Dropout)       (None, 9, 9, 35)          0         
                                                                 
 max_pooling2d_259 (MaxPool  (None, 4, 4, 35)          0         
 ing2D)                                                          
                                                                 
 batch_normalization_259 (B  (None, 4, 4, 35)          140       
 atchNormalization)                                              
                                                                 
 flatten_64 (Flatten)        (None, 560)               0         
                                                                 
 dense_128 (Dense)           (None, 64)                35904     
                                                                 
 dropout_194 (Dropout)       (None, 64)                0         
                                                                 
 dense_129 (Dense)           (None, 3)                 195       
                                                                 
=================================================================
Total params: 124914 (487.95 KB)
Trainable params: 124500 (486.33 KB)
Non-trainable params: 414 (1.62 KB)
_________________________________________________________________
None
Epoch 1/20
33/33 [==============================] - 10s 137ms/step - loss: 1.4248 - categorical_accuracy: 0.3038 - val_loss: 2.1719 - val_categorical_accuracy: 0.0544
…
33/33 [==============================] - 3s 82ms/step - loss: 1.0600 - categorical_accuracy: 0.3105 - val_loss: 1.1835 - val_categorical_accuracy: 0.0089
29/29 [==============================] - 1s 9ms/step - loss: 1.1835 - categorical_accuracy: 0.0089
eval [1.1834664344787598, 0.008888889104127884]
29/29 [==============================] - 0s 9ms/step - loss: 1.1835 - categorical_accuracy: 0.0089
70 9
Model: "sequential_65"
_________________________________________________________________
 Layer (type)                Output Shape              Param #   
=================================================================
 conv2d_260 (Conv2D)         (None, 104, 104, 70)      17080     
                                                                 
 max_pooling2d_260 (MaxPool  (None, 52, 52, 70)        0         
 ing2D)                                                          
                                                                 
 batch_normalization_260 (B  (None, 52, 52, 70)        280       
 atchNormalization)                                              
                                                                 
 conv2d_261 (Conv2D)         (None, 50, 50, 70)        44170     
                                                                 
 max_pooling2d_261 (MaxPool  (None, 25, 25, 70)        0         
 ing2D)                                                          
                                                                 
 batch_normalization_261 (B  (None, 25, 25, 70)        280       
 atchNormalization)                                              
                                                                 
 conv2d_262 (Conv2D)         (None, 23, 23, 32)        20192     
                                                                 
 dropout_195 (Dropout)       (None, 23, 23, 32)        0         
                                                                 
 max_pooling2d_262 (MaxPool  (None, 11, 11, 32)        0         
 ing2D)                                                          
                                                                 
 batch_normalization_262 (B  (None, 11, 11, 32)        128       
 atchNormalization)                                              
                                                                 
 conv2d_263 (Conv2D)         (None, 9, 9, 35)          10115     
                                                                 
 dropout_196 (Dropout)       (None, 9, 9, 35)          0         
                                                                 
 max_pooling2d_263 (MaxPool  (None, 4, 4, 35)          0         
 ing2D)                                                          
                                                                 
 batch_normalization_263 (B  (None, 4, 4, 35)          140       
 atchNormalization)                                              
                                                                 
 flatten_65 (Flatten)        (None, 560)               0         
                                                                 
 dense_130 (Dense)           (None, 64)                35904     
                                                                 
 dropout_197 (Dropout)       (None, 64)                0         
                                                                 
 dense_131 (Dense)           (None, 3)                 195       
                                                                 
=================================================================
Total params: 128484 (501.89 KB)
Trainable params: 128070 (500.27 KB)
Non-trainable params: 414 (1.62 KB)
_________________________________________________________________
None
Epoch 1/20
33/33 [==============================] - 8s 105ms/step - loss: 1.5337 - categorical_accuracy: 0.3281 - val_loss: 5.1356 - val_categorical_accuracy: 0.0000e+00
…
33/33 [==============================] - 3s 78ms/step - loss: 1.0704 - categorical_accuracy: 0.2410 - val_loss: 1.0999 - val_categorical_accuracy: 0.0078
29/29 [==============================] - 1s 11ms/step - loss: 1.0999 - categorical_accuracy: 0.0078
eval [1.0999349355697632, 0.007777777966111898]
29/29 [==============================] - 0s 11ms/step - loss: 1.0999 - categorical_accuracy: 0.0078
80 2
Model: "sequential_66"
_________________________________________________________________
 Layer (type)                Output Shape              Param #   
=================================================================
 conv2d_264 (Conv2D)         (None, 111, 111, 80)      1040      
                                                                 
 max_pooling2d_264 (MaxPool  (None, 55, 55, 80)        0         
 ing2D)                                                          
                                                                 
 batch_normalization_264 (B  (None, 55, 55, 80)        320       
 atchNormalization)                                              
                                                                 
 conv2d_265 (Conv2D)         (None, 53, 53, 80)        57680     
                                                                 
 max_pooling2d_265 (MaxPool  (None, 26, 26, 80)        0         
 ing2D)                                                          
                                                                 
 batch_normalization_265 (B  (None, 26, 26, 80)        320       
 atchNormalization)                                              
                                                                 
 conv2d_266 (Conv2D)         (None, 24, 24, 32)        23072     
                                                                 
 dropout_198 (Dropout)       (None, 24, 24, 32)        0         
                                                                 
 max_pooling2d_266 (MaxPool  (None, 12, 12, 32)        0         
 ing2D)                                                          
                                                                 
 batch_normalization_266 (B  (None, 12, 12, 32)        128       
 atchNormalization)                                              
                                                                 
 conv2d_267 (Conv2D)         (None, 10, 10, 40)        11560     
                                                                 
 dropout_199 (Dropout)       (None, 10, 10, 40)        0         
                                                                 
 max_pooling2d_267 (MaxPool  (None, 5, 5, 40)          0         
 ing2D)                                                          
                                                                 
 batch_normalization_267 (B  (None, 5, 5, 40)          160       
 atchNormalization)                                              
                                                                 
 flatten_66 (Flatten)        (None, 1000)              0         
                                                                 
 dense_132 (Dense)           (None, 64)                64064     
                                                                 
 dropout_200 (Dropout)       (None, 64)                0         
                                                                 
 dense_133 (Dense)           (None, 3)                 195       
                                                                 
=================================================================
Total params: 158539 (619.29 KB)
Trainable params: 158075 (617.48 KB)
Non-trainable params: 464 (1.81 KB)
_________________________________________________________________
None
Epoch 1/20
33/33 [==============================] - 9s 127ms/step - loss: 1.4080 - categorical_accuracy: 0.2933 - val_loss: 5.6499 - val_categorical_accuracy: 0.0000e+00
…
